node {
  name: "global_step/Initializer/zeros"
  op: "Const"
  attr {
    key: "_class"
    value {
      list {
        s: "loc:@global_step"
      }
    }
  }
  attr {
    key: "_output_shapes"
    value {
      list {
        shape {
        }
      }
    }
  }
  attr {
    key: "dtype"
    value {
      type: DT_INT64
    }
  }
  attr {
    key: "value"
    value {
      tensor {
        dtype: DT_INT64
        tensor_shape {
        }
        int64_val: 0
      }
    }
  }
}
node {
  name: "global_step"
  op: "VariableV2"
  attr {
    key: "_class"
    value {
      list {
        s: "loc:@global_step"
      }
    }
  }
  attr {
    key: "_output_shapes"
    value {
      list {
        shape {
        }
      }
    }
  }
  attr {
    key: "container"
    value {
      s: ""
    }
  }
  attr {
    key: "dtype"
    value {
      type: DT_INT64
    }
  }
  attr {
    key: "shape"
    value {
      shape {
      }
    }
  }
  attr {
    key: "shared_name"
    value {
      s: ""
    }
  }
}
node {
  name: "global_step/Assign"
  op: "Assign"
  input: "global_step"
  input: "global_step/Initializer/zeros"
  attr {
    key: "T"
    value {
      type: DT_INT64
    }
  }
  attr {
    key: "_class"
    value {
      list {
        s: "loc:@global_step"
      }
    }
  }
  attr {
    key: "_output_shapes"
    value {
      list {
        shape {
        }
      }
    }
  }
  attr {
    key: "use_locking"
    value {
      b: true
    }
  }
  attr {
    key: "validate_shape"
    value {
      b: true
    }
  }
}
node {
  name: "global_step/read"
  op: "Identity"
  input: "global_step"
  attr {
    key: "T"
    value {
      type: DT_INT64
    }
  }
  attr {
    key: "_class"
    value {
      list {
        s: "loc:@global_step"
      }
    }
  }
  attr {
    key: "_output_shapes"
    value {
      list {
        shape {
        }
      }
    }
  }
}
node {
  name: "Const"
  op: "Const"
  attr {
    key: "_output_shapes"
    value {
      list {
        shape {
          dim {
            size: 17500
          }
        }
      }
    }
  }
  attr {
    key: "dtype"
    value {
      type: DT_STRING
    }
  }
  attr {
    key: "value"
    value {
      tensor {
        dtype: DT_STRING
        tensor_shape {
          dim {
            size: 17500
          }
        }
        string_val: "/notebooks/data/train/cat.2931.jpg"
        string_val: "/notebooks/data/train/cat.9337.jpg"
        string_val: "/notebooks/data/train/dog.5439.jpg"
        string_val: "/notebooks/data/train/cat.3619.jpg"
        string_val: "/notebooks/data/train/cat.5360.jpg"
        string_val: "/notebooks/data/train/cat.294.jpg"
        string_val: "/notebooks/data/train/cat.6304.jpg"
        string_val: "/notebooks/data/train/dog.7877.jpg"
        string_val: "/notebooks/data/train/dog.1406.jpg"
        string_val: "/notebooks/data/train/dog.2157.jpg"
        string_val: "/notebooks/data/train/dog.2242.jpg"
        string_val: "/notebooks/data/train/cat.6155.jpg"
        string_val: "/notebooks/data/train/dog.12052.jpg"
        string_val: "/notebooks/data/train/cat.10317.jpg"
        string_val: "/notebooks/data/train/dog.10218.jpg"
        string_val: "/notebooks/data/train/dog.3131.jpg"
        string_val: "/notebooks/data/train/cat.2683.jpg"
        string_val: "/notebooks/data/train/dog.6786.jpg"
        string_val: "/notebooks/data/train/dog.10460.jpg"
        string_val: "/notebooks/data/train/dog.3459.jpg"
        string_val: "/notebooks/data/train/dog.2624.jpg"
        string_val: "/notebooks/data/train/cat.11535.jpg"
        string_val: "/notebooks/data/train/cat.8984.jpg"
        string_val: "/notebooks/data/train/cat.8771.jpg"
        string_val: "/notebooks/data/train/dog.3555.jpg"
        string_val: "/notebooks/data/train/cat.5536.jpg"
        string_val: "/notebooks/data/train/dog.3773.jpg"
        string_val: "/notebooks/data/train/dog.10981.jpg"
        string_val: "/notebooks/data/train/dog.8659.jpg"
        string_val: "/notebooks/data/train/cat.9247.jpg"
        string_val: "/notebooks/data/train/dog.6355.jpg"
        string_val: "/notebooks/data/train/dog.12383.jpg"
        string_val: "/notebooks/data/train/dog.11301.jpg"
        string_val: "/notebooks/data/train/dog.891.jpg"
        string_val: "/notebooks/data/train/cat.2438.jpg"
        string_val: "/notebooks/data/train/dog.9681.jpg"
        string_val: "/notebooks/data/train/dog.11391.jpg"
        string_val: "/notebooks/data/train/cat.2976.jpg"
        string_val: "/notebooks/data/train/dog.7905.jpg"
        string_val: "/notebooks/data/train/cat.10729.jpg"
        string_val: "/notebooks/data/train/dog.12164.jpg"
        string_val: "/notebooks/data/train/cat.4230.jpg"
        string_val: "/notebooks/data/train/dog.9159.jpg"
        string_val: "/notebooks/data/train/cat.1741.jpg"
        string_val: "/notebooks/data/train/dog.4634.jpg"
        string_val: "/notebooks/data/train/dog.9514.jpg"
        string_val: "/notebooks/data/train/cat.8066.jpg"
        string_val: "/notebooks/data/train/cat.8661.jpg"
        string_val: "/notebooks/data/train/dog.6973.jpg"
        string_val: "/notebooks/data/train/dog.212.jpg"
        string_val: "/notebooks/data/train/dog.1218.jpg"
        string_val: "/notebooks/data/train/cat.9295.jpg"
        string_val: "/notebooks/data/train/dog.1010.jpg"
        string_val: "/notebooks/data/train/cat.4996.jpg"
        string_val: "/notebooks/data/train/dog.12111.jpg"
        string_val: "/notebooks/data/train/dog.9410.jpg"
        string_val: "/notebooks/data/train/cat.6134.jpg"
        string_val: "/notebooks/data/train/dog.6203.jpg"
        string_val: "/notebooks/data/train/cat.5318.jpg"
        string_val: "/notebooks/data/train/dog.2469.jpg"
        string_val: "/notebooks/data/train/cat.5604.jpg"
        string_val: "/notebooks/data/train/dog.8846.jpg"
        string_val: "/notebooks/data/train/dog.7704.jpg"
        string_val: "/notebooks/data/train/cat.985.jpg"
        string_val: "/notebooks/data/train/cat.2823.jpg"
        string_val: "/notebooks/data/train/dog.2879.jpg"
        string_val: "/notebooks/data/train/dog.5612.jpg"
        string_val: "/notebooks/data/train/cat.7686.jpg"
        string_val: "/notebooks/data/train/cat.7306.jpg"
        string_val: "/notebooks/data/train/dog.5692.jpg"
        string_val: "/notebooks/data/train/cat.964.jpg"
        string_val: "/notebooks/data/train/cat.9866.jpg"
        string_val: "/notebooks/data/train/dog.7414.jpg"
        string_val: "/notebooks/data/train/dog.6549.jpg"
        string_val: "/notebooks/data/train/cat.597.jpg"
        string_val: "/notebooks/data/train/dog.10680.jpg"
        string_val: "/notebooks/data/train/cat.1697.jpg"
        string_val: "/notebooks/data/train/cat.2019.jpg"
        string_val: "/notebooks/data/train/cat.7562.jpg"
        string_val: "/notebooks/data/train/dog.11630.jpg"
        string_val: "/notebooks/data/train/cat.8079.jpg"
        string_val: "/notebooks/data/train/cat.2122.jpg"
        string_val: "/notebooks/data/train/cat.2993.jpg"
        string_val: "/notebooks/data/train/dog.2662.jpg"
        string_val: "/notebooks/data/train/dog.5423.jpg"
        string_val: "/notebooks/data/train/cat.4574.jpg"
        string_val: "/notebooks/data/train/cat.10004.jpg"
        string_val: "/notebooks/data/train/dog.11486.jpg"
        string_val: "/notebooks/data/train/cat.1157.jpg"
        string_val: "/notebooks/data/train/dog.9341.jpg"
        string_val: "/notebooks/data/train/dog.4676.jpg"
        string_val: "/notebooks/data/train/dog.8641.jpg"
        string_val: "/notebooks/data/train/cat.4569.jpg"
        string_val: "/notebooks/data/train/cat.4214.jpg"
        string_val: "/notebooks/data/train/dog.2850.jpg"
        string_val: "/notebooks/data/train/cat.706.jpg"
        string_val: "/notebooks/data/train/dog.5472.jpg"
        string_val: "/notebooks/data/train/cat.3221.jpg"
        string_val: "/notebooks/data/train/cat.6414.jpg"
        string_val: "/notebooks/data/train/cat.9632.jpg"
        string_val: "/notebooks/data/train/cat.12140.jpg"
        string_val: "/notebooks/data/train/dog.10084.jpg"
        string_val: "/notebooks/data/train/dog.11670.jpg"
        string_val: "/notebooks/data/train/dog.35.jpg"
        string_val: "/notebooks/data/train/cat.10307.jpg"
        string_val: "/notebooks/data/train/cat.7863.jpg"
        string_val: "/notebooks/data/train/cat.12122.jpg"
        string_val: "/notebooks/data/train/cat.147.jpg"
        string_val: "/notebooks/data/train/cat.2506.jpg"
        string_val: "/notebooks/data/train/dog.10481.jpg"
        string_val: "/notebooks/data/train/cat.2865.jpg"
        string_val: "/notebooks/data/train/dog.757.jpg"
        string_val: "/notebooks/data/train/cat.993.jpg"
        string_val: "/notebooks/data/train/dog.1526.jpg"
        string_val: "/notebooks/data/train/dog.3072.jpg"
        string_val: "/notebooks/data/train/dog.409.jpg"
        string_val: "/notebooks/data/train/cat.3335.jpg"
        string_val: "/notebooks/data/train/cat.5188.jpg"
        string_val: "/notebooks/data/train/dog.5263.jpg"
        string_val: "/notebooks/data/train/dog.498.jpg"
        string_val: "/notebooks/data/train/dog.8109.jpg"
        string_val: "/notebooks/data/train/dog.11.jpg"
        string_val: "/notebooks/data/train/cat.6226.jpg"
        string_val: "/notebooks/data/train/cat.4461.jpg"
        string_val: "/notebooks/data/train/cat.6913.jpg"
        string_val: "/notebooks/data/train/cat.12334.jpg"
        string_val: "/notebooks/data/train/cat.1914.jpg"
        string_val: "/notebooks/data/train/cat.5913.jpg"
        string_val: "/notebooks/data/train/dog.3784.jpg"
        string_val: "/notebooks/data/train/dog.972.jpg"
        string_val: "/notebooks/data/train/dog.5946.jpg"
        string_val: "/notebooks/data/train/dog.4772.jpg"
        string_val: "/notebooks/data/train/cat.1125.jpg"
        string_val: "/notebooks/data/train/cat.6247.jpg"
        string_val: "/notebooks/data/train/dog.4575.jpg"
        string_val: "/notebooks/data/train/dog.1273.jpg"
        string_val: "/notebooks/data/train/dog.11866.jpg"
        string_val: "/notebooks/data/train/cat.8222.jpg"
        string_val: "/notebooks/data/train/dog.1062.jpg"
        string_val: "/notebooks/data/train/dog.9375.jpg"
        string_val: "/notebooks/data/train/dog.6319.jpg"
        string_val: "/notebooks/data/train/dog.11636.jpg"
        string_val: "/notebooks/data/train/cat.3657.jpg"
        string_val: "/notebooks/data/train/cat.4526.jpg"
        string_val: "/notebooks/data/train/dog.8016.jpg"
        string_val: "/notebooks/data/train/dog.9810.jpg"
        string_val: "/notebooks/data/train/dog.12272.jpg"
        string_val: "/notebooks/data/train/cat.3661.jpg"
        string_val: "/notebooks/data/train/cat.86.jpg"
        string_val: "/notebooks/data/train/dog.2886.jpg"
        string_val: "/notebooks/data/train/cat.10756.jpg"
        string_val: "/notebooks/data/train/dog.9487.jpg"
        string_val: "/notebooks/data/train/cat.11776.jpg"
        string_val: "/notebooks/data/train/cat.10389.jpg"
        string_val: "/notebooks/data/train/dog.9385.jpg"
        string_val: "/notebooks/data/train/cat.1005.jpg"
        string_val: "/notebooks/data/train/cat.4936.jpg"
        string_val: "/notebooks/data/train/dog.389.jpg"
        string_val: "/notebooks/data/train/dog.9255.jpg"
        string_val: "/notebooks/data/train/cat.3182.jpg"
        string_val: "/notebooks/data/train/dog.10151.jpg"
        string_val: "/notebooks/data/train/dog.234.jpg"
        string_val: "/notebooks/data/train/cat.8937.jpg"
        string_val: "/notebooks/data/train/dog.10385.jpg"
        string_val: "/notebooks/data/train/cat.5073.jpg"
        string_val: "/notebooks/data/train/cat.6082.jpg"
        string_val: "/notebooks/data/train/dog.3360.jpg"
        string_val: "/notebooks/data/train/cat.12.jpg"
        string_val: "/notebooks/data/train/dog.7232.jpg"
        string_val: "/notebooks/data/train/cat.7455.jpg"
        string_val: "/notebooks/data/train/cat.6766.jpg"
        string_val: "/notebooks/data/train/cat.2805.jpg"
        string_val: "/notebooks/data/train/dog.1184.jpg"
        string_val: "/notebooks/data/train/dog.4169.jpg"
        string_val: "/notebooks/data/train/cat.4681.jpg"
        string_val: "/notebooks/data/train/dog.3265.jpg"
        string_val: "/notebooks/data/train/cat.9410.jpg"
        string_val: "/notebooks/data/train/dog.7155.jpg"
        string_val: "/notebooks/data/train/dog.11794.jpg"
        string_val: "/notebooks/data/train/cat.559.jpg"
        string_val: "/notebooks/data/train/dog.8351.jpg"
        string_val: "/notebooks/data/train/cat.7605.jpg"
        string_val: "/notebooks/data/train/cat.11763.jpg"
        string_val: "/notebooks/data/train/cat.3955.jpg"
        string_val: "/notebooks/data/train/dog.1902.jpg"
        string_val: "/notebooks/data/train/cat.6267.jpg"
        string_val: "/notebooks/data/train/dog.9646.jpg"
        string_val: "/notebooks/data/train/dog.10831.jpg"
        string_val: "/notebooks/data/train/dog.11165.jpg"
        string_val: "/notebooks/data/train/dog.6817.jpg"
        string_val: "/notebooks/data/train/cat.5855.jpg"
        string_val: "/notebooks/data/train/dog.10166.jpg"
        string_val: "/notebooks/data/train/cat.9829.jpg"
        string_val: "/notebooks/data/train/dog.10119.jpg"
        string_val: "/notebooks/data/train/dog.11667.jpg"
        string_val: "/notebooks/data/train/cat.7888.jpg"
        string_val: "/notebooks/data/train/dog.6891.jpg"
        string_val: "/notebooks/data/train/dog.5288.jpg"
        string_val: "/notebooks/data/train/cat.6636.jpg"
        string_val: "/notebooks/data/train/cat.6728.jpg"
        string_val: "/notebooks/data/train/dog.974.jpg"
        string_val: "/notebooks/data/train/cat.302.jpg"
        string_val: "/notebooks/data/train/dog.1560.jpg"
        string_val: "/notebooks/data/train/cat.4333.jpg"
        string_val: "/notebooks/data/train/dog.8554.jpg"
        string_val: "/notebooks/data/train/cat.192.jpg"
        string_val: "/notebooks/data/train/cat.1917.jpg"
        string_val: "/notebooks/data/train/cat.9153.jpg"
        string_val: "/notebooks/data/train/cat.3613.jpg"
        string_val: "/notebooks/data/train/cat.983.jpg"
        string_val: "/notebooks/data/train/dog.6502.jpg"
        string_val: "/notebooks/data/train/cat.4718.jpg"
        string_val: "/notebooks/data/train/dog.1471.jpg"
        string_val: "/notebooks/data/train/dog.3647.jpg"
        string_val: "/notebooks/data/train/cat.2842.jpg"
        string_val: "/notebooks/data/train/dog.4202.jpg"
        string_val: "/notebooks/data/train/dog.6506.jpg"
        string_val: "/notebooks/data/train/cat.7203.jpg"
        string_val: "/notebooks/data/train/cat.11809.jpg"
        string_val: "/notebooks/data/train/dog.11379.jpg"
        string_val: "/notebooks/data/train/cat.1994.jpg"
        string_val: "/notebooks/data/train/dog.7401.jpg"
        string_val: "/notebooks/data/train/cat.3065.jpg"
        string_val: "/notebooks/data/train/cat.8290.jpg"
        string_val: "/notebooks/data/train/dog.7327.jpg"
        string_val: "/notebooks/data/train/cat.314.jpg"
        string_val: "/notebooks/data/train/cat.5303.jpg"
        string_val: "/notebooks/data/train/dog.11901.jpg"
        string_val: "/notebooks/data/train/dog.10778.jpg"
        string_val: "/notebooks/data/train/cat.7364.jpg"
        string_val: "/notebooks/data/train/cat.9542.jpg"
        string_val: "/notebooks/data/train/cat.817.jpg"
        string_val: "/notebooks/data/train/cat.121.jpg"
        string_val: "/notebooks/data/train/cat.3503.jpg"
        string_val: "/notebooks/data/train/dog.8431.jpg"
        string_val: "/notebooks/data/train/dog.7161.jpg"
        string_val: "/notebooks/data/train/dog.5437.jpg"
        string_val: "/notebooks/data/train/dog.1748.jpg"
        string_val: "/notebooks/data/train/cat.2.jpg"
        string_val: "/notebooks/data/train/cat.9179.jpg"
        string_val: "/notebooks/data/train/dog.11067.jpg"
        string_val: "/notebooks/data/train/cat.12045.jpg"
        string_val: "/notebooks/data/train/cat.5618.jpg"
        string_val: "/notebooks/data/train/dog.10592.jpg"
        string_val: "/notebooks/data/train/cat.1269.jpg"
        string_val: "/notebooks/data/train/cat.11117.jpg"
        string_val: "/notebooks/data/train/cat.6027.jpg"
        string_val: "/notebooks/data/train/dog.9761.jpg"
        string_val: "/notebooks/data/train/cat.12362.jpg"
        string_val: "/notebooks/data/train/cat.9688.jpg"
        string_val: "/notebooks/data/train/cat.2164.jpg"
        string_val: "/notebooks/data/train/cat.7673.jpg"
        string_val: "/notebooks/data/train/cat.164.jpg"
        string_val: "/notebooks/data/train/cat.11887.jpg"
        string_val: "/notebooks/data/train/dog.11770.jpg"
        string_val: "/notebooks/data/train/cat.11721.jpg"
        string_val: "/notebooks/data/train/cat.11560.jpg"
        string_val: "/notebooks/data/train/cat.9609.jpg"
        string_val: "/notebooks/data/train/cat.6297.jpg"
        string_val: "/notebooks/data/train/cat.12153.jpg"
        string_val: "/notebooks/data/train/dog.5013.jpg"
        string_val: "/notebooks/data/train/cat.4182.jpg"
        string_val: "/notebooks/data/train/dog.11093.jpg"
        string_val: "/notebooks/data/train/dog.6844.jpg"
        string_val: "/notebooks/data/train/dog.8802.jpg"
        string_val: "/notebooks/data/train/cat.4011.jpg"
        string_val: "/notebooks/data/train/dog.8203.jpg"
        string_val: "/notebooks/data/train/cat.1297.jpg"
        string_val: "/notebooks/data/train/dog.2249.jpg"
        string_val: "/notebooks/data/train/dog.3558.jpg"
        string_val: "/notebooks/data/train/dog.3824.jpg"
        string_val: "/notebooks/data/train/cat.917.jpg"
        string_val: "/notebooks/data/train/cat.6292.jpg"
        string_val: "/notebooks/data/train/cat.9462.jpg"
        string_val: "/notebooks/data/train/dog.8516.jpg"
        string_val: "/notebooks/data/train/dog.3456.jpg"
        string_val: "/notebooks/data/train/dog.9278.jpg"
        string_val: "/notebooks/data/train/cat.1581.jpg"
        string_val: "/notebooks/data/train/dog.9479.jpg"
        string_val: "/notebooks/data/train/dog.12212.jpg"
        string_val: "/notebooks/data/train/cat.9700.jpg"
        string_val: "/notebooks/data/train/dog.4058.jpg"
        string_val: "/notebooks/data/train/cat.4171.jpg"
        string_val: "/notebooks/data/train/dog.4792.jpg"
        string_val: "/notebooks/data/train/dog.11930.jpg"
        string_val: "/notebooks/data/train/dog.153.jpg"
        string_val: "/notebooks/data/train/cat.2816.jpg"
        string_val: "/notebooks/data/train/dog.2271.jpg"
        string_val: "/notebooks/data/train/dog.10003.jpg"
        string_val: "/notebooks/data/train/cat.10489.jpg"
        string_val: "/notebooks/data/train/cat.4670.jpg"
        string_val: "/notebooks/data/train/dog.9572.jpg"
        string_val: "/notebooks/data/train/cat.2774.jpg"
        string_val: "/notebooks/data/train/cat.7688.jpg"
        string_val: "/notebooks/data/train/dog.5622.jpg"
        string_val: "/notebooks/data/train/cat.6690.jpg"
        string_val: "/notebooks/data/train/dog.6412.jpg"
        string_val: "/notebooks/data/train/dog.170.jpg"
        string_val: "/notebooks/data/train/cat.3499.jpg"
        string_val: "/notebooks/data/train/cat.8170.jpg"
        string_val: "/notebooks/data/train/cat.8346.jpg"
        string_val: "/notebooks/data/train/cat.5032.jpg"
        string_val: "/notebooks/data/train/cat.9702.jpg"
        string_val: "/notebooks/data/train/dog.5680.jpg"
        string_val: "/notebooks/data/train/dog.9890.jpg"
        string_val: "/notebooks/data/train/dog.10149.jpg"
        string_val: "/notebooks/data/train/cat.10053.jpg"
        string_val: "/notebooks/data/train/cat.10349.jpg"
        string_val: "/notebooks/data/train/dog.6262.jpg"
        string_val: "/notebooks/data/train/dog.10692.jpg"
        string_val: "/notebooks/data/train/cat.11369.jpg"
        string_val: "/notebooks/data/train/cat.8595.jpg"
        string_val: "/notebooks/data/train/cat.567.jpg"
        string_val: "/notebooks/data/train/dog.9237.jpg"
        string_val: "/notebooks/data/train/dog.8476.jpg"
        string_val: "/notebooks/data/train/cat.8311.jpg"
        string_val: "/notebooks/data/train/cat.733.jpg"
        string_val: "/notebooks/data/train/dog.3149.jpg"
        string_val: "/notebooks/data/train/cat.10318.jpg"
        string_val: "/notebooks/data/train/cat.2753.jpg"
        string_val: "/notebooks/data/train/cat.7350.jpg"
        string_val: "/notebooks/data/train/cat.6776.jpg"
        string_val: "/notebooks/data/train/cat.11223.jpg"
        string_val: "/notebooks/data/train/cat.12184.jpg"
        string_val: "/notebooks/data/train/cat.2711.jpg"
        string_val: "/notebooks/data/train/cat.6526.jpg"
        string_val: "/notebooks/data/train/dog.5554.jpg"
        string_val: "/notebooks/data/train/cat.3257.jpg"
        string_val: "/notebooks/data/train/cat.5224.jpg"
        string_val: "/notebooks/data/train/dog.6159.jpg"
        string_val: "/notebooks/data/train/dog.12325.jpg"
        string_val: "/notebooks/data/train/cat.1904.jpg"
        string_val: "/notebooks/data/train/cat.874.jpg"
        string_val: "/notebooks/data/train/dog.8475.jpg"
        string_val: "/notebooks/data/train/cat.2437.jpg"
        string_val: "/notebooks/data/train/cat.10807.jpg"
        string_val: "/notebooks/data/train/cat.7883.jpg"
        string_val: "/notebooks/data/train/dog.2370.jpg"
        string_val: "/notebooks/data/train/dog.254.jpg"
        string_val: "/notebooks/data/train/dog.6201.jpg"
        string_val: "/notebooks/data/train/dog.5192.jpg"
        string_val: "/notebooks/data/train/cat.7392.jpg"
        string_val: "/notebooks/data/train/cat.4939.jpg"
        string_val: "/notebooks/data/train/cat.2621.jpg"
        string_val: "/notebooks/data/train/dog.12430.jpg"
        string_val: "/notebooks/data/train/cat.4502.jpg"
        string_val: "/notebooks/data/train/cat.11279.jpg"
        string_val: "/notebooks/data/train/dog.10381.jpg"
        string_val: "/notebooks/data/train/cat.5892.jpg"
        string_val: "/notebooks/data/train/dog.5581.jpg"
        string_val: "/notebooks/data/train/cat.7120.jpg"
        string_val: "/notebooks/data/train/cat.6511.jpg"
        string_val: "/notebooks/data/train/dog.9764.jpg"
        string_val: "/notebooks/data/train/cat.6462.jpg"
        string_val: "/notebooks/data/train/cat.5317.jpg"
        string_val: "/notebooks/data/train/dog.5686.jpg"
        string_val: "/notebooks/data/train/cat.11741.jpg"
        string_val: "/notebooks/data/train/dog.7907.jpg"
        string_val: "/notebooks/data/train/cat.10587.jpg"
        string_val: "/notebooks/data/train/cat.1506.jpg"
        string_val: "/notebooks/data/train/cat.890.jpg"
        string_val: "/notebooks/data/train/cat.5909.jpg"
        string_val: "/notebooks/data/train/cat.4699.jpg"
        string_val: "/notebooks/data/train/dog.8712.jpg"
        string_val: "/notebooks/data/train/cat.447.jpg"
        string_val: "/notebooks/data/train/dog.6815.jpg"
        string_val: "/notebooks/data/train/dog.5174.jpg"
        string_val: "/notebooks/data/train/cat.1126.jpg"
        string_val: "/notebooks/data/train/dog.1399.jpg"
        string_val: "/notebooks/data/train/cat.12467.jpg"
        string_val: "/notebooks/data/train/dog.2038.jpg"
        string_val: "/notebooks/data/train/cat.4737.jpg"
        string_val: "/notebooks/data/train/cat.2047.jpg"
        string_val: "/notebooks/data/train/cat.3759.jpg"
        string_val: "/notebooks/data/train/dog.9756.jpg"
        string_val: "/notebooks/data/train/cat.6327.jpg"
        string_val: "/notebooks/data/train/dog.1317.jpg"
        string_val: "/notebooks/data/train/dog.818.jpg"
        string_val: "/notebooks/data/train/cat.415.jpg"
        string_val: "/notebooks/data/train/cat.11908.jpg"
        string_val: "/notebooks/data/train/dog.6588.jpg"
        string_val: "/notebooks/data/train/dog.6922.jpg"
        string_val: "/notebooks/data/train/cat.10074.jpg"
        string_val: "/notebooks/data/train/dog.3508.jpg"
        string_val: "/notebooks/data/train/dog.8446.jpg"
        string_val: "/notebooks/data/train/dog.3561.jpg"
        string_val: "/notebooks/data/train/cat.4772.jpg"
        string_val: "/notebooks/data/train/dog.5539.jpg"
        string_val: "/notebooks/data/train/dog.4066.jpg"
        string_val: "/notebooks/data/train/cat.9301.jpg"
        string_val: "/notebooks/data/train/dog.2724.jpg"
        string_val: "/notebooks/data/train/cat.3622.jpg"
        string_val: "/notebooks/data/train/dog.2295.jpg"
        string_val: "/notebooks/data/train/dog.12077.jpg"
        string_val: "/notebooks/data/train/dog.1281.jpg"
        string_val: "/notebooks/data/train/cat.3181.jpg"
        string_val: "/notebooks/data/train/cat.11707.jpg"
        string_val: "/notebooks/data/train/dog.8352.jpg"
        string_val: "/notebooks/data/train/cat.2175.jpg"
        string_val: "/notebooks/data/train/dog.5173.jpg"
        string_val: "/notebooks/data/train/cat.3108.jpg"
        string_val: "/notebooks/data/train/cat.5350.jpg"
        string_val: "/notebooks/data/train/cat.1628.jpg"
        string_val: "/notebooks/data/train/cat.2316.jpg"
        string_val: "/notebooks/data/train/dog.4477.jpg"
        string_val: "/notebooks/data/train/dog.24.jpg"
        string_val: "/notebooks/data/train/cat.10382.jpg"
        string_val: "/notebooks/data/train/cat.12036.jpg"
        string_val: "/notebooks/data/train/cat.2491.jpg"
        string_val: "/notebooks/data/train/dog.760.jpg"
        string_val: "/notebooks/data/train/dog.5142.jpg"
        string_val: "/notebooks/data/train/dog.10504.jpg"
        string_val: "/notebooks/data/train/dog.9213.jpg"
        string_val: "/notebooks/data/train/dog.663.jpg"
        string_val: "/notebooks/data/train/cat.2031.jpg"
        string_val: "/notebooks/data/train/cat.1017.jpg"
        string_val: "/notebooks/data/train/cat.4717.jpg"
        string_val: "/notebooks/data/train/dog.12213.jpg"
        string_val: "/notebooks/data/train/cat.11052.jpg"
        string_val: "/notebooks/data/train/cat.5282.jpg"
        string_val: "/notebooks/data/train/cat.2940.jpg"
        string_val: "/notebooks/data/train/dog.2733.jpg"
        string_val: "/notebooks/data/train/cat.4054.jpg"
        string_val: "/notebooks/data/train/dog.7771.jpg"
        string_val: "/notebooks/data/train/dog.539.jpg"
        string_val: "/notebooks/data/train/cat.10910.jpg"
        string_val: "/notebooks/data/train/cat.2941.jpg"
        string_val: "/notebooks/data/train/dog.7170.jpg"
        string_val: "/notebooks/data/train/dog.3986.jpg"
        string_val: "/notebooks/data/train/dog.9705.jpg"
        string_val: "/notebooks/data/train/cat.5780.jpg"
        string_val: "/notebooks/data/train/cat.1826.jpg"
        string_val: "/notebooks/data/train/cat.8050.jpg"
        string_val: "/notebooks/data/train/cat.11765.jpg"
        string_val: "/notebooks/data/train/cat.5110.jpg"
        string_val: "/notebooks/data/train/dog.10404.jpg"
        string_val: "/notebooks/data/train/cat.11305.jpg"
        string_val: "/notebooks/data/train/dog.7815.jpg"
        string_val: "/notebooks/data/train/dog.8981.jpg"
        string_val: "/notebooks/data/train/dog.319.jpg"
        string_val: "/notebooks/data/train/cat.5295.jpg"
        string_val: "/notebooks/data/train/cat.10727.jpg"
        string_val: "/notebooks/data/train/dog.3941.jpg"
        string_val: "/notebooks/data/train/dog.68.jpg"
        string_val: "/notebooks/data/train/cat.3439.jpg"
        string_val: "/notebooks/data/train/cat.1459.jpg"
        string_val: "/notebooks/data/train/cat.10167.jpg"
        string_val: "/notebooks/data/train/dog.10368.jpg"
        string_val: "/notebooks/data/train/cat.8676.jpg"
        string_val: "/notebooks/data/train/cat.4046.jpg"
        string_val: "/notebooks/data/train/cat.11934.jpg"
        string_val: "/notebooks/data/train/cat.7815.jpg"
        string_val: "/notebooks/data/train/dog.2361.jpg"
        string_val: "/notebooks/data/train/cat.4151.jpg"
        string_val: "/notebooks/data/train/dog.1108.jpg"
        string_val: "/notebooks/data/train/dog.3400.jpg"
        string_val: "/notebooks/data/train/dog.10739.jpg"
        string_val: "/notebooks/data/train/cat.1081.jpg"
        string_val: "/notebooks/data/train/cat.10986.jpg"
        string_val: "/notebooks/data/train/cat.8175.jpg"
        string_val: "/notebooks/data/train/cat.271.jpg"
        string_val: "/notebooks/data/train/cat.1304.jpg"
        string_val: "/notebooks/data/train/dog.7074.jpg"
        string_val: "/notebooks/data/train/cat.8372.jpg"
        string_val: "/notebooks/data/train/cat.5185.jpg"
        string_val: "/notebooks/data/train/cat.11459.jpg"
        string_val: "/notebooks/data/train/dog.8424.jpg"
        string_val: "/notebooks/data/train/dog.5782.jpg"
        string_val: "/notebooks/data/train/cat.6881.jpg"
        string_val: "/notebooks/data/train/cat.9399.jpg"
        string_val: "/notebooks/data/train/cat.4957.jpg"
        string_val: "/notebooks/data/train/cat.3329.jpg"
        string_val: "/notebooks/data/train/cat.2091.jpg"
        string_val: "/notebooks/data/train/dog.9036.jpg"
        string_val: "/notebooks/data/train/cat.12154.jpg"
        string_val: "/notebooks/data/train/dog.2270.jpg"
        string_val: "/notebooks/data/train/dog.358.jpg"
        string_val: "/notebooks/data/train/cat.7396.jpg"
        string_val: "/notebooks/data/train/dog.4360.jpg"
        string_val: "/notebooks/data/train/cat.11906.jpg"
        string_val: "/notebooks/data/train/cat.11658.jpg"
        string_val: "/notebooks/data/train/cat.1072.jpg"
        string_val: "/notebooks/data/train/dog.3850.jpg"
        string_val: "/notebooks/data/train/cat.9350.jpg"
        string_val: "/notebooks/data/train/dog.95.jpg"
        string_val: "/notebooks/data/train/dog.7447.jpg"
        string_val: "/notebooks/data/train/dog.641.jpg"
        string_val: "/notebooks/data/train/cat.816.jpg"
        string_val: "/notebooks/data/train/cat.908.jpg"
        string_val: "/notebooks/data/train/cat.195.jpg"
        string_val: "/notebooks/data/train/dog.2726.jpg"
        string_val: "/notebooks/data/train/cat.3177.jpg"
        string_val: "/notebooks/data/train/dog.6435.jpg"
        string_val: "/notebooks/data/train/cat.8997.jpg"
        string_val: "/notebooks/data/train/dog.6699.jpg"
        string_val: "/notebooks/data/train/dog.4025.jpg"
        string_val: "/notebooks/data/train/cat.10178.jpg"
        string_val: "/notebooks/data/train/cat.1698.jpg"
        string_val: "/notebooks/data/train/cat.8133.jpg"
        string_val: "/notebooks/data/train/cat.10792.jpg"
        string_val: "/notebooks/data/train/cat.8427.jpg"
        string_val: "/notebooks/data/train/dog.1695.jpg"
        string_val: "/notebooks/data/train/dog.10278.jpg"
        string_val: "/notebooks/data/train/dog.11818.jpg"
        string_val: "/notebooks/data/train/dog.3694.jpg"
        string_val: "/notebooks/data/train/dog.10940.jpg"
        string_val: "/notebooks/data/train/cat.10419.jpg"
        string_val: "/notebooks/data/train/dog.4789.jpg"
        string_val: "/notebooks/data/train/dog.11201.jpg"
        string_val: "/notebooks/data/train/cat.11358.jpg"
        string_val: "/notebooks/data/train/dog.469.jpg"
        string_val: "/notebooks/data/train/cat.10638.jpg"
        string_val: "/notebooks/data/train/dog.4486.jpg"
        string_val: "/notebooks/data/train/cat.1147.jpg"
        string_val: "/notebooks/data/train/cat.7948.jpg"
        string_val: "/notebooks/data/train/dog.8491.jpg"
        string_val: "/notebooks/data/train/dog.3225.jpg"
        string_val: "/notebooks/data/train/dog.9773.jpg"
        string_val: "/notebooks/data/train/dog.4595.jpg"
        string_val: "/notebooks/data/train/cat.3580.jpg"
        string_val: "/notebooks/data/train/cat.3168.jpg"
        string_val: "/notebooks/data/train/dog.7765.jpg"
        string_val: "/notebooks/data/train/dog.11253.jpg"
        string_val: "/notebooks/data/train/cat.9367.jpg"
        string_val: "/notebooks/data/train/dog.2278.jpg"
        string_val: "/notebooks/data/train/cat.2003.jpg"
        string_val: "/notebooks/data/train/cat.8805.jpg"
        string_val: "/notebooks/data/train/dog.1195.jpg"
        string_val: "/notebooks/data/train/cat.4584.jpg"
        string_val: "/notebooks/data/train/dog.3363.jpg"
        string_val: "/notebooks/data/train/dog.12437.jpg"
        string_val: "/notebooks/data/train/cat.10046.jpg"
        string_val: "/notebooks/data/train/dog.3189.jpg"
        string_val: "/notebooks/data/train/dog.90.jpg"
        string_val: "/notebooks/data/train/cat.5076.jpg"
        string_val: "/notebooks/data/train/cat.11349.jpg"
        string_val: "/notebooks/data/train/dog.11470.jpg"
        string_val: "/notebooks/data/train/cat.12229.jpg"
        string_val: "/notebooks/data/train/cat.2262.jpg"
        string_val: "/notebooks/data/train/dog.10725.jpg"
        string_val: "/notebooks/data/train/cat.9900.jpg"
        string_val: "/notebooks/data/train/dog.4459.jpg"
        string_val: "/notebooks/data/train/dog.10945.jpg"
        string_val: "/notebooks/data/train/dog.2494.jpg"
        string_val: "/notebooks/data/train/dog.4850.jpg"
        string_val: "/notebooks/data/train/dog.8500.jpg"
        string_val: "/notebooks/data/train/cat.425.jpg"
        string_val: "/notebooks/data/train/dog.2695.jpg"
        string_val: "/notebooks/data/train/cat.4161.jpg"
        string_val: "/notebooks/data/train/cat.3328.jpg"
        string_val: "/notebooks/data/train/cat.4919.jpg"
        string_val: "/notebooks/data/train/dog.9150.jpg"
        string_val: "/notebooks/data/train/cat.8739.jpg"
        string_val: "/notebooks/data/train/cat.2744.jpg"
        string_val: "/notebooks/data/train/cat.6916.jpg"
        string_val: "/notebooks/data/train/dog.6648.jpg"
        string_val: "/notebooks/data/train/cat.5511.jpg"
        string_val: "/notebooks/data/train/dog.5568.jpg"
        string_val: "/notebooks/data/train/dog.2872.jpg"
        string_val: "/notebooks/data/train/cat.10900.jpg"
        string_val: "/notebooks/data/train/cat.12471.jpg"
        string_val: "/notebooks/data/train/cat.8028.jpg"
        string_val: "/notebooks/data/train/dog.3468.jpg"
        string_val: "/notebooks/data/train/dog.10972.jpg"
        string_val: "/notebooks/data/train/dog.10386.jpg"
        string_val: "/notebooks/data/train/dog.11748.jpg"
        string_val: "/notebooks/data/train/cat.11065.jpg"
        string_val: "/notebooks/data/train/dog.2797.jpg"
        string_val: "/notebooks/data/train/dog.1257.jpg"
        string_val: "/notebooks/data/train/dog.6957.jpg"
        string_val: "/notebooks/data/train/dog.6674.jpg"
        string_val: "/notebooks/data/train/cat.10609.jpg"
        string_val: "/notebooks/data/train/cat.9231.jpg"
        string_val: "/notebooks/data/train/dog.6670.jpg"
        string_val: "/notebooks/data/train/cat.2046.jpg"
        string_val: "/notebooks/data/train/dog.7120.jpg"
        string_val: "/notebooks/data/train/dog.6211.jpg"
        string_val: "/notebooks/data/train/dog.7050.jpg"
        string_val: "/notebooks/data/train/cat.3258.jpg"
        string_val: "/notebooks/data/train/dog.1786.jpg"
        string_val: "/notebooks/data/train/cat.10951.jpg"
        string_val: "/notebooks/data/train/cat.8273.jpg"
        string_val: "/notebooks/data/train/dog.700.jpg"
        string_val: "/notebooks/data/train/cat.4224.jpg"
        string_val: "/notebooks/data/train/cat.943.jpg"
        string_val: "/notebooks/data/train/dog.445.jpg"
        string_val: "/notebooks/data/train/dog.11330.jpg"
        string_val: "/notebooks/data/train/dog.8522.jpg"
        string_val: "/notebooks/data/train/cat.5308.jpg"
        string_val: "/notebooks/data/train/cat.5114.jpg"
        string_val: "/notebooks/data/train/dog.9112.jpg"
        string_val: "/notebooks/data/train/dog.7951.jpg"
        string_val: "/notebooks/data/train/cat.3880.jpg"
        string_val: "/notebooks/data/train/dog.11512.jpg"
        string_val: "/notebooks/data/train/cat.8164.jpg"
        string_val: "/notebooks/data/train/dog.5101.jpg"
        string_val: "/notebooks/data/train/dog.11143.jpg"
        string_val: "/notebooks/data/train/cat.7884.jpg"
        string_val: "/notebooks/data/train/cat.9333.jpg"
        string_val: "/notebooks/data/train/cat.4815.jpg"
        string_val: "/notebooks/data/train/dog.4638.jpg"
        string_val: "/notebooks/data/train/dog.6418.jpg"
        string_val: "/notebooks/data/train/cat.6726.jpg"
        string_val: "/notebooks/data/train/cat.9932.jpg"
        string_val: "/notebooks/data/train/cat.4968.jpg"
        string_val: "/notebooks/data/train/cat.2847.jpg"
        string_val: "/notebooks/data/train/dog.5461.jpg"
        string_val: "/notebooks/data/train/cat.11121.jpg"
        string_val: "/notebooks/data/train/cat.6838.jpg"
        string_val: "/notebooks/data/train/dog.624.jpg"
        string_val: "/notebooks/data/train/cat.9758.jpg"
        string_val: "/notebooks/data/train/dog.4704.jpg"
        string_val: "/notebooks/data/train/dog.7837.jpg"
        string_val: "/notebooks/data/train/cat.4190.jpg"
        string_val: "/notebooks/data/train/cat.6405.jpg"
        string_val: "/notebooks/data/train/cat.5416.jpg"
        string_val: "/notebooks/data/train/cat.170.jpg"
        string_val: "/notebooks/data/train/cat.10148.jpg"
        string_val: "/notebooks/data/train/cat.9508.jpg"
        string_val: "/notebooks/data/train/cat.7322.jpg"
        string_val: "/notebooks/data/train/dog.9971.jpg"
        string_val: "/notebooks/data/train/dog.1430.jpg"
        string_val: "/notebooks/data/train/cat.2209.jpg"
        string_val: "/notebooks/data/train/cat.5995.jpg"
        string_val: "/notebooks/data/train/cat.8300.jpg"
        string_val: "/notebooks/data/train/dog.11375.jpg"
        string_val: "/notebooks/data/train/cat.8762.jpg"
        string_val: "/notebooks/data/train/dog.8111.jpg"
        string_val: "/notebooks/data/train/dog.1933.jpg"
        string_val: "/notebooks/data/train/dog.540.jpg"
        string_val: "/notebooks/data/train/dog.3084.jpg"
        string_val: "/notebooks/data/train/dog.11227.jpg"
        string_val: "/notebooks/data/train/cat.8585.jpg"
        string_val: "/notebooks/data/train/cat.6230.jpg"
        string_val: "/notebooks/data/train/dog.7974.jpg"
        string_val: "/notebooks/data/train/cat.12037.jpg"
        string_val: "/notebooks/data/train/cat.3179.jpg"
        string_val: "/notebooks/data/train/cat.1522.jpg"
        string_val: "/notebooks/data/train/cat.1375.jpg"
        string_val: "/notebooks/data/train/cat.3483.jpg"
        string_val: "/notebooks/data/train/cat.3523.jpg"
        string_val: "/notebooks/data/train/dog.9868.jpg"
        string_val: "/notebooks/data/train/cat.2235.jpg"
        string_val: "/notebooks/data/train/cat.10628.jpg"
        string_val: "/notebooks/data/train/cat.10802.jpg"
        string_val: "/notebooks/data/train/cat.1307.jpg"
        string_val: "/notebooks/data/train/dog.5085.jpg"
        string_val: "/notebooks/data/train/dog.9872.jpg"
        string_val: "/notebooks/data/train/dog.10140.jpg"
        string_val: "/notebooks/data/train/cat.5338.jpg"
        string_val: "/notebooks/data/train/cat.17.jpg"
        string_val: "/notebooks/data/train/cat.1792.jpg"
        string_val: "/notebooks/data/train/cat.2097.jpg"
        string_val: "/notebooks/data/train/dog.4981.jpg"
        string_val: "/notebooks/data/train/dog.149.jpg"
        string_val: "/notebooks/data/train/cat.12409.jpg"
        string_val: "/notebooks/data/train/dog.7505.jpg"
        string_val: "/notebooks/data/train/dog.2893.jpg"
        string_val: "/notebooks/data/train/cat.10551.jpg"
        string_val: "/notebooks/data/train/dog.11422.jpg"
        string_val: "/notebooks/data/train/dog.7370.jpg"
        string_val: "/notebooks/data/train/cat.411.jpg"
        string_val: "/notebooks/data/train/cat.10242.jpg"
        string_val: "/notebooks/data/train/dog.7992.jpg"
        string_val: "/notebooks/data/train/cat.6615.jpg"
        string_val: "/notebooks/data/train/dog.6738.jpg"
        string_val: "/notebooks/data/train/dog.9948.jpg"
        string_val: "/notebooks/data/train/cat.10128.jpg"
        string_val: "/notebooks/data/train/dog.801.jpg"
        string_val: "/notebooks/data/train/dog.10584.jpg"
        string_val: "/notebooks/data/train/dog.769.jpg"
        string_val: "/notebooks/data/train/dog.11221.jpg"
        string_val: "/notebooks/data/train/dog.1833.jpg"
        string_val: "/notebooks/data/train/dog.946.jpg"
        string_val: "/notebooks/data/train/dog.5275.jpg"
        string_val: "/notebooks/data/train/cat.11757.jpg"
        string_val: "/notebooks/data/train/dog.11203.jpg"
        string_val: "/notebooks/data/train/dog.3376.jpg"
        string_val: "/notebooks/data/train/dog.8403.jpg"
        string_val: "/notebooks/data/train/cat.831.jpg"
        string_val: "/notebooks/data/train/dog.3965.jpg"
        string_val: "/notebooks/data/train/dog.2364.jpg"
        string_val: "/notebooks/data/train/cat.1756.jpg"
        string_val: "/notebooks/data/train/dog.7308.jpg"
        string_val: "/notebooks/data/train/cat.5319.jpg"
        string_val: "/notebooks/data/train/dog.11584.jpg"
        string_val: "/notebooks/data/train/cat.3007.jpg"
        string_val: "/notebooks/data/train/cat.4865.jpg"
        string_val: "/notebooks/data/train/dog.1874.jpg"
        string_val: "/notebooks/data/train/cat.6644.jpg"
        string_val: "/notebooks/data/train/dog.12404.jpg"
        string_val: "/notebooks/data/train/cat.7354.jpg"
        string_val: "/notebooks/data/train/dog.605.jpg"
        string_val: "/notebooks/data/train/dog.4237.jpg"
        string_val: "/notebooks/data/train/cat.3754.jpg"
        string_val: "/notebooks/data/train/cat.2106.jpg"
        string_val: "/notebooks/data/train/cat.11995.jpg"
        string_val: "/notebooks/data/train/dog.9147.jpg"
        string_val: "/notebooks/data/train/dog.3077.jpg"
        string_val: "/notebooks/data/train/cat.10720.jpg"
        string_val: "/notebooks/data/train/dog.5449.jpg"
        string_val: "/notebooks/data/train/cat.4391.jpg"
        string_val: "/notebooks/data/train/dog.12124.jpg"
        string_val: "/notebooks/data/train/dog.1649.jpg"
        string_val: "/notebooks/data/train/cat.11494.jpg"
        string_val: "/notebooks/data/train/cat.7585.jpg"
        string_val: "/notebooks/data/train/cat.4414.jpg"
        string_val: "/notebooks/data/train/dog.2622.jpg"
        string_val: "/notebooks/data/train/dog.3484.jpg"
        string_val: "/notebooks/data/train/dog.2576.jpg"
        string_val: "/notebooks/data/train/dog.5507.jpg"
        string_val: "/notebooks/data/train/cat.6080.jpg"
        string_val: "/notebooks/data/train/cat.8760.jpg"
        string_val: "/notebooks/data/train/dog.8633.jpg"
        string_val: "/notebooks/data/train/dog.6728.jpg"
        string_val: "/notebooks/data/train/dog.7003.jpg"
        string_val: "/notebooks/data/train/cat.6874.jpg"
        string_val: "/notebooks/data/train/cat.7164.jpg"
        string_val: "/notebooks/data/train/dog.5471.jpg"
        string_val: "/notebooks/data/train/cat.7202.jpg"
        string_val: "/notebooks/data/train/cat.5684.jpg"
        string_val: "/notebooks/data/train/cat.6542.jpg"
        string_val: "/notebooks/data/train/cat.6097.jpg"
        string_val: "/notebooks/data/train/cat.9335.jpg"
        string_val: "/notebooks/data/train/cat.3694.jpg"
        string_val: "/notebooks/data/train/dog.12431.jpg"
        string_val: "/notebooks/data/train/dog.2941.jpg"
        string_val: "/notebooks/data/train/dog.2974.jpg"
        string_val: "/notebooks/data/train/dog.3814.jpg"
        string_val: "/notebooks/data/train/dog.12314.jpg"
        string_val: "/notebooks/data/train/dog.11405.jpg"
        string_val: "/notebooks/data/train/dog.2498.jpg"
        string_val: "/notebooks/data/train/cat.11933.jpg"
        string_val: "/notebooks/data/train/dog.10802.jpg"
        string_val: "/notebooks/data/train/cat.980.jpg"
        string_val: "/notebooks/data/train/cat.4762.jpg"
        string_val: "/notebooks/data/train/cat.10331.jpg"
        string_val: "/notebooks/data/train/dog.3018.jpg"
        string_val: "/notebooks/data/train/cat.1635.jpg"
        string_val: "/notebooks/data/train/dog.7114.jpg"
        string_val: "/notebooks/data/train/cat.4358.jpg"
        string_val: "/notebooks/data/train/dog.6154.jpg"
        string_val: "/notebooks/data/train/dog.902.jpg"
        string_val: "/notebooks/data/train/dog.2957.jpg"
        string_val: "/notebooks/data/train/cat.11598.jpg"
        string_val: "/notebooks/data/train/dog.8841.jpg"
        string_val: "/notebooks/data/train/cat.3968.jpg"
        string_val: "/notebooks/data/train/cat.6033.jpg"
        string_val: "/notebooks/data/train/cat.2803.jpg"
        string_val: "/notebooks/data/train/cat.9413.jpg"
        string_val: "/notebooks/data/train/cat.1264.jpg"
        string_val: "/notebooks/data/train/cat.3775.jpg"
        string_val: "/notebooks/data/train/cat.173.jpg"
        string_val: "/notebooks/data/train/dog.11808.jpg"
        string_val: "/notebooks/data/train/cat.6856.jpg"
        string_val: "/notebooks/data/train/dog.5342.jpg"
        string_val: "/notebooks/data/train/dog.2712.jpg"
        string_val: "/notebooks/data/train/dog.12469.jpg"
        string_val: "/notebooks/data/train/cat.4548.jpg"
        string_val: "/notebooks/data/train/cat.1989.jpg"
        string_val: "/notebooks/data/train/dog.12154.jpg"
        string_val: "/notebooks/data/train/dog.388.jpg"
        string_val: "/notebooks/data/train/cat.2428.jpg"
        string_val: "/notebooks/data/train/dog.5366.jpg"
        string_val: "/notebooks/data/train/dog.11890.jpg"
        string_val: "/notebooks/data/train/dog.2647.jpg"
        string_val: "/notebooks/data/train/dog.4763.jpg"
        string_val: "/notebooks/data/train/dog.3771.jpg"
        string_val: "/notebooks/data/train/cat.1401.jpg"
        string_val: "/notebooks/data/train/cat.9190.jpg"
        string_val: "/notebooks/data/train/dog.6621.jpg"
        string_val: "/notebooks/data/train/dog.8767.jpg"
        string_val: "/notebooks/data/train/cat.4922.jpg"
        string_val: "/notebooks/data/train/cat.5248.jpg"
        string_val: "/notebooks/data/train/dog.2149.jpg"
        string_val: "/notebooks/data/train/cat.4147.jpg"
        string_val: "/notebooks/data/train/dog.1274.jpg"
        string_val: "/notebooks/data/train/cat.8906.jpg"
        string_val: "/notebooks/data/train/dog.6453.jpg"
        string_val: "/notebooks/data/train/dog.320.jpg"
        string_val: "/notebooks/data/train/cat.1776.jpg"
        string_val: "/notebooks/data/train/dog.10221.jpg"
        string_val: "/notebooks/data/train/dog.10053.jpg"
        string_val: "/notebooks/data/train/cat.11487.jpg"
        string_val: "/notebooks/data/train/dog.4568.jpg"
        string_val: "/notebooks/data/train/cat.1688.jpg"
        string_val: "/notebooks/data/train/dog.7593.jpg"
        string_val: "/notebooks/data/train/cat.2199.jpg"
        string_val: "/notebooks/data/train/cat.9989.jpg"
        string_val: "/notebooks/data/train/cat.2627.jpg"
        string_val: "/notebooks/data/train/dog.12436.jpg"
        string_val: "/notebooks/data/train/cat.10260.jpg"
        string_val: "/notebooks/data/train/dog.8844.jpg"
        string_val: "/notebooks/data/train/dog.8334.jpg"
        string_val: "/notebooks/data/train/cat.9448.jpg"
        string_val: "/notebooks/data/train/cat.3276.jpg"
        string_val: "/notebooks/data/train/dog.9779.jpg"
        string_val: "/notebooks/data/train/cat.5166.jpg"
        string_val: "/notebooks/data/train/cat.6648.jpg"
        string_val: "/notebooks/data/train/cat.6262.jpg"
        string_val: "/notebooks/data/train/dog.9985.jpg"
        string_val: "/notebooks/data/train/cat.9832.jpg"
        string_val: "/notebooks/data/train/cat.7215.jpg"
        string_val: "/notebooks/data/train/dog.9762.jpg"
        string_val: "/notebooks/data/train/cat.10340.jpg"
        string_val: "/notebooks/data/train/dog.4118.jpg"
        string_val: "/notebooks/data/train/cat.2323.jpg"
        string_val: "/notebooks/data/train/cat.758.jpg"
        string_val: "/notebooks/data/train/cat.3741.jpg"
        string_val: "/notebooks/data/train/dog.9702.jpg"
        string_val: "/notebooks/data/train/cat.2918.jpg"
        string_val: "/notebooks/data/train/cat.6186.jpg"
        string_val: "/notebooks/data/train/cat.9858.jpg"
        string_val: "/notebooks/data/train/cat.3174.jpg"
        string_val: "/notebooks/data/train/cat.5534.jpg"
        string_val: "/notebooks/data/train/dog.7339.jpg"
        string_val: "/notebooks/data/train/cat.11192.jpg"
        string_val: "/notebooks/data/train/dog.4291.jpg"
        string_val: "/notebooks/data/train/dog.1085.jpg"
        string_val: "/notebooks/data/train/cat.2851.jpg"
        string_val: "/notebooks/data/train/cat.155.jpg"
        string_val: "/notebooks/data/train/cat.1028.jpg"
        string_val: "/notebooks/data/train/dog.8882.jpg"
        string_val: "/notebooks/data/train/dog.8365.jpg"
        string_val: "/notebooks/data/train/dog.4678.jpg"
        string_val: "/notebooks/data/train/dog.6487.jpg"
        string_val: "/notebooks/data/train/dog.10308.jpg"
        string_val: "/notebooks/data/train/cat.1493.jpg"
        string_val: "/notebooks/data/train/dog.10670.jpg"
        string_val: "/notebooks/data/train/dog.2443.jpg"
        string_val: "/notebooks/data/train/dog.6964.jpg"
        string_val: "/notebooks/data/train/dog.9172.jpg"
        string_val: "/notebooks/data/train/cat.549.jpg"
        string_val: "/notebooks/data/train/dog.857.jpg"
        string_val: "/notebooks/data/train/cat.2434.jpg"
        string_val: "/notebooks/data/train/dog.10844.jpg"
        string_val: "/notebooks/data/train/dog.7889.jpg"
        string_val: "/notebooks/data/train/dog.6677.jpg"
        string_val: "/notebooks/data/train/dog.7134.jpg"
        string_val: "/notebooks/data/train/cat.5543.jpg"
        string_val: "/notebooks/data/train/dog.1414.jpg"
        string_val: "/notebooks/data/train/dog.3326.jpg"
        string_val: "/notebooks/data/train/dog.11181.jpg"
        string_val: "/notebooks/data/train/cat.6148.jpg"
        string_val: "/notebooks/data/train/cat.2457.jpg"
        string_val: "/notebooks/data/train/cat.8625.jpg"
        string_val: "/notebooks/data/train/dog.7775.jpg"
        string_val: "/notebooks/data/train/dog.10380.jpg"
        string_val: "/notebooks/data/train/cat.10962.jpg"
        string_val: "/notebooks/data/train/dog.5703.jpg"
        string_val: "/notebooks/data/train/cat.3673.jpg"
        string_val: "/notebooks/data/train/cat.6025.jpg"
        string_val: "/notebooks/data/train/dog.9614.jpg"
        string_val: "/notebooks/data/train/dog.20.jpg"
        string_val: "/notebooks/data/train/cat.4300.jpg"
        string_val: "/notebooks/data/train/cat.3724.jpg"
        string_val: "/notebooks/data/train/dog.7319.jpg"
        string_val: "/notebooks/data/train/cat.9488.jpg"
        string_val: "/notebooks/data/train/cat.10457.jpg"
        string_val: "/notebooks/data/train/dog.5893.jpg"
        string_val: "/notebooks/data/train/dog.5079.jpg"
        string_val: "/notebooks/data/train/cat.5258.jpg"
        string_val: "/notebooks/data/train/dog.7075.jpg"
        string_val: "/notebooks/data/train/cat.5563.jpg"
        string_val: "/notebooks/data/train/dog.11592.jpg"
        string_val: "/notebooks/data/train/cat.6386.jpg"
        string_val: "/notebooks/data/train/cat.12451.jpg"
        string_val: "/notebooks/data/train/dog.1330.jpg"
        string_val: "/notebooks/data/train/dog.10864.jpg"
        string_val: "/notebooks/data/train/dog.1825.jpg"
        string_val: "/notebooks/data/train/dog.5082.jpg"
        string_val: "/notebooks/data/train/cat.8147.jpg"
        string_val: "/notebooks/data/train/dog.2640.jpg"
        string_val: "/notebooks/data/train/dog.1623.jpg"
        string_val: "/notebooks/data/train/dog.3887.jpg"
        string_val: "/notebooks/data/train/cat.7439.jpg"
        string_val: "/notebooks/data/train/cat.11584.jpg"
        string_val: "/notebooks/data/train/cat.8419.jpg"
        string_val: "/notebooks/data/train/cat.1548.jpg"
        string_val: "/notebooks/data/train/cat.839.jpg"
        string_val: "/notebooks/data/train/dog.2435.jpg"
        string_val: "/notebooks/data/train/dog.5751.jpg"
        string_val: "/notebooks/data/train/dog.6103.jpg"
        string_val: "/notebooks/data/train/cat.12407.jpg"
        string_val: "/notebooks/data/train/cat.362.jpg"
        string_val: "/notebooks/data/train/dog.9365.jpg"
        string_val: "/notebooks/data/train/dog.8246.jpg"
        string_val: "/notebooks/data/train/dog.3029.jpg"
        string_val: "/notebooks/data/train/dog.9905.jpg"
        string_val: "/notebooks/data/train/cat.806.jpg"
        string_val: "/notebooks/data/train/dog.2650.jpg"
        string_val: "/notebooks/data/train/cat.1490.jpg"
        string_val: "/notebooks/data/train/cat.10603.jpg"
        string_val: "/notebooks/data/train/dog.2444.jpg"
        string_val: "/notebooks/data/train/cat.11720.jpg"
        string_val: "/notebooks/data/train/cat.9354.jpg"
        string_val: "/notebooks/data/train/cat.4379.jpg"
        string_val: "/notebooks/data/train/cat.3349.jpg"
        string_val: "/notebooks/data/train/cat.3993.jpg"
        string_val: "/notebooks/data/train/dog.12066.jpg"
        string_val: "/notebooks/data/train/dog.4932.jpg"
        string_val: "/notebooks/data/train/cat.356.jpg"
        string_val: "/notebooks/data/train/dog.4740.jpg"
        string_val: "/notebooks/data/train/dog.3680.jpg"
        string_val: "/notebooks/data/train/dog.9594.jpg"
        string_val: "/notebooks/data/train/dog.7846.jpg"
        string_val: "/notebooks/data/train/dog.9360.jpg"
        string_val: "/notebooks/data/train/cat.12101.jpg"
        string_val: "/notebooks/data/train/dog.7950.jpg"
        string_val: "/notebooks/data/train/dog.980.jpg"
        string_val: "/notebooks/data/train/cat.6392.jpg"
        string_val: "/notebooks/data/train/dog.3868.jpg"
        string_val: "/notebooks/data/train/cat.7064.jpg"
        string_val: "/notebooks/data/train/cat.10015.jpg"
        string_val: "/notebooks/data/train/dog.1496.jpg"
        string_val: "/notebooks/data/train/dog.9020.jpg"
        string_val: "/notebooks/data/train/cat.5488.jpg"
        string_val: "/notebooks/data/train/cat.10886.jpg"
        string_val: "/notebooks/data/train/cat.5387.jpg"
        string_val: "/notebooks/data/train/cat.4131.jpg"
        string_val: "/notebooks/data/train/cat.4450.jpg"
        string_val: "/notebooks/data/train/dog.10754.jpg"
        string_val: "/notebooks/data/train/dog.2946.jpg"
        string_val: "/notebooks/data/train/dog.5807.jpg"
        string_val: "/notebooks/data/train/cat.9285.jpg"
        string_val: "/notebooks/data/train/dog.11095.jpg"
        string_val: "/notebooks/data/train/dog.3990.jpg"
        string_val: "/notebooks/data/train/cat.3928.jpg"
        string_val: "/notebooks/data/train/dog.6514.jpg"
        string_val: "/notebooks/data/train/dog.2791.jpg"
        string_val: "/notebooks/data/train/cat.5313.jpg"
        string_val: "/notebooks/data/train/dog.10178.jpg"
        string_val: "/notebooks/data/train/dog.5910.jpg"
        string_val: "/notebooks/data/train/dog.9230.jpg"
        string_val: "/notebooks/data/train/dog.4293.jpg"
        string_val: "/notebooks/data/train/cat.6102.jpg"
        string_val: "/notebooks/data/train/dog.1741.jpg"
        string_val: "/notebooks/data/train/dog.380.jpg"
        string_val: "/notebooks/data/train/cat.12410.jpg"
        string_val: "/notebooks/data/train/dog.525.jpg"
        string_val: "/notebooks/data/train/cat.1387.jpg"
        string_val: "/notebooks/data/train/cat.1295.jpg"
        string_val: "/notebooks/data/train/cat.5529.jpg"
        string_val: "/notebooks/data/train/cat.123.jpg"
        string_val: "/notebooks/data/train/dog.8523.jpg"
        string_val: "/notebooks/data/train/dog.11915.jpg"
        string_val: "/notebooks/data/train/dog.7334.jpg"
        string_val: "/notebooks/data/train/cat.8095.jpg"
        string_val: "/notebooks/data/train/dog.10256.jpg"
        string_val: "/notebooks/data/train/dog.5159.jpg"
        string_val: "/notebooks/data/train/dog.9626.jpg"
        string_val: "/notebooks/data/train/cat.3306.jpg"
        string_val: "/notebooks/data/train/dog.315.jpg"
        string_val: "/notebooks/data/train/cat.9754.jpg"
        string_val: "/notebooks/data/train/cat.2300.jpg"
        string_val: "/notebooks/data/train/dog.7611.jpg"
        string_val: "/notebooks/data/train/dog.11771.jpg"
        string_val: "/notebooks/data/train/cat.12338.jpg"
        string_val: "/notebooks/data/train/cat.2101.jpg"
        string_val: "/notebooks/data/train/cat.6200.jpg"
        string_val: "/notebooks/data/train/dog.10174.jpg"
        string_val: "/notebooks/data/train/cat.1475.jpg"
        string_val: "/notebooks/data/train/dog.4973.jpg"
        string_val: "/notebooks/data/train/cat.8516.jpg"
        string_val: "/notebooks/data/train/dog.9239.jpg"
        string_val: "/notebooks/data/train/cat.4780.jpg"
        string_val: "/notebooks/data/train/dog.224.jpg"
        string_val: "/notebooks/data/train/dog.3669.jpg"
        string_val: "/notebooks/data/train/cat.9976.jpg"
        string_val: "/notebooks/data/train/dog.6671.jpg"
        string_val: "/notebooks/data/train/cat.1333.jpg"
        string_val: "/notebooks/data/train/cat.2220.jpg"
        string_val: "/notebooks/data/train/cat.1865.jpg"
        string_val: "/notebooks/data/train/cat.3264.jpg"
        string_val: "/notebooks/data/train/dog.11951.jpg"
        string_val: "/notebooks/data/train/cat.10044.jpg"
        string_val: "/notebooks/data/train/cat.5469.jpg"
        string_val: "/notebooks/data/train/cat.7558.jpg"
        string_val: "/notebooks/data/train/dog.595.jpg"
        string_val: "/notebooks/data/train/cat.6595.jpg"
        string_val: "/notebooks/data/train/cat.4316.jpg"
        string_val: "/notebooks/data/train/dog.7989.jpg"
        string_val: "/notebooks/data/train/dog.8872.jpg"
        string_val: "/notebooks/data/train/dog.9703.jpg"
        string_val: "/notebooks/data/train/cat.10994.jpg"
        string_val: "/notebooks/data/train/cat.181.jpg"
        string_val: "/notebooks/data/train/dog.10259.jpg"
        string_val: "/notebooks/data/train/cat.12244.jpg"
        string_val: "/notebooks/data/train/dog.10442.jpg"
        string_val: "/notebooks/data/train/dog.5599.jpg"
        string_val: "/notebooks/data/train/dog.4715.jpg"
        string_val: "/notebooks/data/train/dog.11509.jpg"
        string_val: "/notebooks/data/train/dog.4951.jpg"
        string_val: "/notebooks/data/train/dog.617.jpg"
        string_val: "/notebooks/data/train/cat.1198.jpg"
        string_val: "/notebooks/data/train/cat.10532.jpg"
        string_val: "/notebooks/data/train/dog.12306.jpg"
        string_val: "/notebooks/data/train/dog.2423.jpg"
        string_val: "/notebooks/data/train/cat.11653.jpg"
        string_val: "/notebooks/data/train/dog.8811.jpg"
        string_val: "/notebooks/data/train/cat.4880.jpg"
        string_val: "/notebooks/data/train/dog.4261.jpg"
        string_val: "/notebooks/data/train/cat.3837.jpg"
        string_val: "/notebooks/data/train/cat.4236.jpg"
        string_val: "/notebooks/data/train/dog.6863.jpg"
        string_val: "/notebooks/data/train/dog.8886.jpg"
        string_val: "/notebooks/data/train/cat.9935.jpg"
        string_val: "/notebooks/data/train/cat.81.jpg"
        string_val: "/notebooks/data/train/cat.1844.jpg"
        string_val: "/notebooks/data/train/cat.2915.jpg"
        string_val: "/notebooks/data/train/dog.10914.jpg"
        string_val: "/notebooks/data/train/dog.7526.jpg"
        string_val: "/notebooks/data/train/dog.5075.jpg"
        string_val: "/notebooks/data/train/dog.7793.jpg"
        string_val: "/notebooks/data/train/cat.1120.jpg"
        string_val: "/notebooks/data/train/dog.12375.jpg"
        string_val: "/notebooks/data/train/cat.2964.jpg"
        string_val: "/notebooks/data/train/cat.7846.jpg"
        string_val: "/notebooks/data/train/cat.8899.jpg"
        string_val: "/notebooks/data/train/cat.2685.jpg"
        string_val: "/notebooks/data/train/dog.9386.jpg"
        string_val: "/notebooks/data/train/cat.1216.jpg"
        string_val: "/notebooks/data/train/dog.6167.jpg"
        string_val: "/notebooks/data/train/cat.10267.jpg"
        string_val: "/notebooks/data/train/dog.10741.jpg"
        string_val: "/notebooks/data/train/cat.9835.jpg"
        string_val: "/notebooks/data/train/cat.6385.jpg"
        string_val: "/notebooks/data/train/cat.3683.jpg"
        string_val: "/notebooks/data/train/dog.7180.jpg"
        string_val: "/notebooks/data/train/dog.4830.jpg"
        string_val: "/notebooks/data/train/cat.8220.jpg"
        string_val: "/notebooks/data/train/dog.9930.jpg"
        string_val: "/notebooks/data/train/cat.2981.jpg"
        string_val: "/notebooks/data/train/dog.3842.jpg"
        string_val: "/notebooks/data/train/dog.5108.jpg"
        string_val: "/notebooks/data/train/cat.307.jpg"
        string_val: "/notebooks/data/train/dog.8559.jpg"
        string_val: "/notebooks/data/train/dog.11372.jpg"
        string_val: "/notebooks/data/train/dog.12316.jpg"
        string_val: "/notebooks/data/train/dog.1193.jpg"
        string_val: "/notebooks/data/train/cat.8316.jpg"
        string_val: "/notebooks/data/train/dog.5100.jpg"
        string_val: "/notebooks/data/train/cat.474.jpg"
        string_val: "/notebooks/data/train/cat.807.jpg"
        string_val: "/notebooks/data/train/dog.8549.jpg"
        string_val: "/notebooks/data/train/dog.12226.jpg"
        string_val: "/notebooks/data/train/cat.6364.jpg"
        string_val: "/notebooks/data/train/cat.3620.jpg"
        string_val: "/notebooks/data/train/cat.9361.jpg"
        string_val: "/notebooks/data/train/dog.10224.jpg"
        string_val: "/notebooks/data/train/cat.6470.jpg"
        string_val: "/notebooks/data/train/cat.2572.jpg"
        string_val: "/notebooks/data/train/dog.1737.jpg"
        string_val: "/notebooks/data/train/cat.2416.jpg"
        string_val: "/notebooks/data/train/cat.1380.jpg"
        string_val: "/notebooks/data/train/dog.10461.jpg"
        string_val: "/notebooks/data/train/cat.2007.jpg"
        string_val: "/notebooks/data/train/dog.6975.jpg"
        string_val: "/notebooks/data/train/dog.1736.jpg"
        string_val: "/notebooks/data/train/dog.11164.jpg"
        string_val: "/notebooks/data/train/cat.11500.jpg"
        string_val: "/notebooks/data/train/dog.2843.jpg"
        string_val: "/notebooks/data/train/cat.1901.jpg"
        string_val: "/notebooks/data/train/dog.5431.jpg"
        string_val: "/notebooks/data/train/dog.10287.jpg"
        string_val: "/notebooks/data/train/dog.8238.jpg"
        string_val: "/notebooks/data/train/dog.1241.jpg"
        string_val: "/notebooks/data/train/dog.1091.jpg"
        string_val: "/notebooks/data/train/cat.572.jpg"
        string_val: "/notebooks/data/train/cat.3504.jpg"
        string_val: "/notebooks/data/train/cat.10132.jpg"
        string_val: "/notebooks/data/train/dog.11279.jpg"
        string_val: "/notebooks/data/train/cat.10950.jpg"
        string_val: "/notebooks/data/train/dog.1749.jpg"
        string_val: "/notebooks/data/train/dog.5217.jpg"
        string_val: "/notebooks/data/train/cat.2525.jpg"
        string_val: "/notebooks/data/train/dog.12209.jpg"
        string_val: "/notebooks/data/train/dog.978.jpg"
        string_val: "/notebooks/data/train/cat.1074.jpg"
        string_val: "/notebooks/data/train/dog.1486.jpg"
        string_val: "/notebooks/data/train/dog.4040.jpg"
        string_val: "/notebooks/data/train/dog.11241.jpg"
        string_val: "/notebooks/data/train/dog.2141.jpg"
        string_val: "/notebooks/data/train/dog.8182.jpg"
        string_val: "/notebooks/data/train/cat.11588.jpg"
        string_val: "/notebooks/data/train/cat.4111.jpg"
        string_val: "/notebooks/data/train/dog.9886.jpg"
        string_val: "/notebooks/data/train/dog.8937.jpg"
        string_val: "/notebooks/data/train/dog.8961.jpg"
        string_val: "/notebooks/data/train/dog.7643.jpg"
        string_val: "/notebooks/data/train/cat.5792.jpg"
        string_val: "/notebooks/data/train/cat.317.jpg"
        string_val: "/notebooks/data/train/cat.1190.jpg"
        string_val: "/notebooks/data/train/cat.4914.jpg"
        string_val: "/notebooks/data/train/dog.4230.jpg"
        string_val: "/notebooks/data/train/cat.11876.jpg"
        string_val: "/notebooks/data/train/cat.6914.jpg"
        string_val: "/notebooks/data/train/cat.3445.jpg"
        string_val: "/notebooks/data/train/dog.883.jpg"
        string_val: "/notebooks/data/train/dog.2714.jpg"
        string_val: "/notebooks/data/train/cat.8976.jpg"
        string_val: "/notebooks/data/train/dog.5561.jpg"
        string_val: "/notebooks/data/train/dog.6112.jpg"
        string_val: "/notebooks/data/train/dog.9789.jpg"
        string_val: "/notebooks/data/train/cat.5765.jpg"
        string_val: "/notebooks/data/train/dog.4597.jpg"
        string_val: "/notebooks/data/train/cat.2769.jpg"
        string_val: "/notebooks/data/train/cat.3405.jpg"
        string_val: "/notebooks/data/train/dog.4709.jpg"
        string_val: "/notebooks/data/train/dog.11983.jpg"
        string_val: "/notebooks/data/train/cat.1900.jpg"
        string_val: "/notebooks/data/train/dog.3793.jpg"
        string_val: "/notebooks/data/train/cat.1863.jpg"
        string_val: "/notebooks/data/train/cat.7025.jpg"
        string_val: "/notebooks/data/train/dog.4351.jpg"
        string_val: "/notebooks/data/train/cat.5750.jpg"
        string_val: "/notebooks/data/train/cat.2213.jpg"
        string_val: "/notebooks/data/train/dog.8521.jpg"
        string_val: "/notebooks/data/train/dog.3135.jpg"
        string_val: "/notebooks/data/train/cat.11017.jpg"
        string_val: "/notebooks/data/train/dog.2481.jpg"
        string_val: "/notebooks/data/train/cat.3505.jpg"
        string_val: "/notebooks/data/train/cat.10568.jpg"
        string_val: "/notebooks/data/train/dog.4288.jpg"
        string_val: "/notebooks/data/train/cat.6061.jpg"
        string_val: "/notebooks/data/train/cat.2626.jpg"
        string_val: "/notebooks/data/train/dog.4741.jpg"
        string_val: "/notebooks/data/train/dog.2795.jpg"
        string_val: "/notebooks/data/train/dog.1403.jpg"
        string_val: "/notebooks/data/train/dog.7452.jpg"
        string_val: "/notebooks/data/train/dog.7751.jpg"
        string_val: "/notebooks/data/train/cat.7467.jpg"
        string_val: "/notebooks/data/train/dog.11619.jpg"
        string_val: "/notebooks/data/train/dog.5638.jpg"
        string_val: "/notebooks/data/train/dog.5300.jpg"
        string_val: "/notebooks/data/train/cat.10924.jpg"
        string_val: "/notebooks/data/train/dog.3108.jpg"
        string_val: "/notebooks/data/train/dog.6746.jpg"
        string_val: "/notebooks/data/train/cat.6735.jpg"
        string_val: "/notebooks/data/train/dog.8125.jpg"
        string_val: "/notebooks/data/train/dog.8312.jpg"
        string_val: "/notebooks/data/train/cat.6736.jpg"
        string_val: "/notebooks/data/train/cat.5761.jpg"
        string_val: "/notebooks/data/train/dog.10705.jpg"
        string_val: "/notebooks/data/train/dog.10748.jpg"
        string_val: "/notebooks/data/train/cat.6442.jpg"
        string_val: "/notebooks/data/train/cat.5082.jpg"
        string_val: "/notebooks/data/train/cat.8076.jpg"
        string_val: "/notebooks/data/train/dog.2432.jpg"
        string_val: "/notebooks/data/train/dog.12103.jpg"
        string_val: "/notebooks/data/train/cat.3636.jpg"
        string_val: "/notebooks/data/train/cat.7523.jpg"
        string_val: "/notebooks/data/train/dog.7483.jpg"
        string_val: "/notebooks/data/train/cat.8209.jpg"
        string_val: "/notebooks/data/train/dog.11458.jpg"
        string_val: "/notebooks/data/train/cat.5927.jpg"
        string_val: "/notebooks/data/train/cat.7337.jpg"
        string_val: "/notebooks/data/train/dog.10821.jpg"
        string_val: "/notebooks/data/train/dog.11121.jpg"
        string_val: "/notebooks/data/train/dog.10238.jpg"
        string_val: "/notebooks/data/train/dog.2958.jpg"
        string_val: "/notebooks/data/train/dog.4171.jpg"
        string_val: "/notebooks/data/train/dog.11091.jpg"
        string_val: "/notebooks/data/train/cat.7715.jpg"
        string_val: "/notebooks/data/train/cat.6192.jpg"
        string_val: "/notebooks/data/train/dog.12355.jpg"
        string_val: "/notebooks/data/train/cat.596.jpg"
        string_val: "/notebooks/data/train/dog.7486.jpg"
        string_val: "/notebooks/data/train/dog.8405.jpg"
        string_val: "/notebooks/data/train/dog.4626.jpg"
        string_val: "/notebooks/data/train/dog.5708.jpg"
        string_val: "/notebooks/data/train/dog.5317.jpg"
        string_val: "/notebooks/data/train/cat.7741.jpg"
        string_val: "/notebooks/data/train/dog.4602.jpg"
        string_val: "/notebooks/data/train/dog.4433.jpg"
        string_val: "/notebooks/data/train/dog.9469.jpg"
        string_val: "/notebooks/data/train/dog.8599.jpg"
        string_val: "/notebooks/data/train/cat.1714.jpg"
        string_val: "/notebooks/data/train/cat.2613.jpg"
        string_val: "/notebooks/data/train/cat.4897.jpg"
        string_val: "/notebooks/data/train/dog.7628.jpg"
        string_val: "/notebooks/data/train/cat.593.jpg"
        string_val: "/notebooks/data/train/dog.6143.jpg"
        string_val: "/notebooks/data/train/dog.6539.jpg"
        string_val: "/notebooks/data/train/cat.9824.jpg"
        string_val: "/notebooks/data/train/dog.2849.jpg"
        string_val: "/notebooks/data/train/dog.6252.jpg"
        string_val: "/notebooks/data/train/dog.4691.jpg"
        string_val: "/notebooks/data/train/dog.2915.jpg"
        string_val: "/notebooks/data/train/dog.11184.jpg"
        string_val: "/notebooks/data/train/dog.7298.jpg"
        string_val: "/notebooks/data/train/dog.1718.jpg"
        string_val: "/notebooks/data/train/dog.6366.jpg"
        string_val: "/notebooks/data/train/cat.10270.jpg"
        string_val: "/notebooks/data/train/dog.3698.jpg"
        string_val: "/notebooks/data/train/cat.9744.jpg"
        string_val: "/notebooks/data/train/dog.1713.jpg"
        string_val: "/notebooks/data/train/cat.10793.jpg"
        string_val: "/notebooks/data/train/dog.7840.jpg"
        string_val: "/notebooks/data/train/dog.5917.jpg"
        string_val: "/notebooks/data/train/cat.4803.jpg"
        string_val: "/notebooks/data/train/dog.11310.jpg"
        string_val: "/notebooks/data/train/cat.4925.jpg"
        string_val: "/notebooks/data/train/cat.3990.jpg"
        string_val: "/notebooks/data/train/dog.5488.jpg"
        string_val: "/notebooks/data/train/cat.9454.jpg"
        string_val: "/notebooks/data/train/dog.2550.jpg"
        string_val: "/notebooks/data/train/dog.7495.jpg"
        string_val: "/notebooks/data/train/dog.2741.jpg"
        string_val: "/notebooks/data/train/cat.4460.jpg"
        string_val: "/notebooks/data/train/dog.32.jpg"
        string_val: "/notebooks/data/train/dog.11216.jpg"
        string_val: "/notebooks/data/train/cat.12279.jpg"
        string_val: "/notebooks/data/train/dog.11623.jpg"
        string_val: "/notebooks/data/train/cat.6675.jpg"
        string_val: "/notebooks/data/train/dog.1019.jpg"
        string_val: "/notebooks/data/train/cat.5587.jpg"
        string_val: "/notebooks/data/train/dog.10347.jpg"
        string_val: "/notebooks/data/train/cat.9388.jpg"
        string_val: "/notebooks/data/train/dog.5690.jpg"
        string_val: "/notebooks/data/train/dog.7739.jpg"
        string_val: "/notebooks/data/train/dog.7179.jpg"
        string_val: "/notebooks/data/train/dog.230.jpg"
        string_val: "/notebooks/data/train/cat.10822.jpg"
        string_val: "/notebooks/data/train/dog.9252.jpg"
        string_val: "/notebooks/data/train/dog.708.jpg"
        string_val: "/notebooks/data/train/cat.3712.jpg"
        string_val: "/notebooks/data/train/dog.2310.jpg"
        string_val: "/notebooks/data/train/dog.2245.jpg"
        string_val: "/notebooks/data/train/dog.301.jpg"
        string_val: "/notebooks/data/train/dog.11320.jpg"
        string_val: "/notebooks/data/train/cat.10580.jpg"
        string_val: "/notebooks/data/train/dog.1604.jpg"
        string_val: "/notebooks/data/train/dog.5498.jpg"
        string_val: "/notebooks/data/train/dog.7723.jpg"
        string_val: "/notebooks/data/train/cat.10430.jpg"
        string_val: "/notebooks/data/train/cat.182.jpg"
        string_val: "/notebooks/data/train/dog.7436.jpg"
        string_val: "/notebooks/data/train/dog.1726.jpg"
        string_val: "/notebooks/data/train/cat.1143.jpg"
        string_val: "/notebooks/data/train/dog.7770.jpg"
        string_val: "/notebooks/data/train/dog.9231.jpg"
        string_val: "/notebooks/data/train/dog.9478.jpg"
        string_val: "/notebooks/data/train/dog.6640.jpg"
        string_val: "/notebooks/data/train/dog.6985.jpg"
        string_val: "/notebooks/data/train/cat.6076.jpg"
        string_val: "/notebooks/data/train/dog.8374.jpg"
        string_val: "/notebooks/data/train/cat.5811.jpg"
        string_val: "/notebooks/data/train/dog.8642.jpg"
        string_val: "/notebooks/data/train/dog.7225.jpg"
        string_val: "/notebooks/data/train/dog.4983.jpg"
        string_val: "/notebooks/data/train/cat.10098.jpg"
        string_val: "/notebooks/data/train/dog.5325.jpg"
        string_val: "/notebooks/data/train/cat.1704.jpg"
        string_val: "/notebooks/data/train/cat.10210.jpg"
        string_val: "/notebooks/data/train/cat.850.jpg"
        string_val: "/notebooks/data/train/dog.7240.jpg"
        string_val: "/notebooks/data/train/cat.8246.jpg"
        string_val: "/notebooks/data/train/cat.3642.jpg"
        string_val: "/notebooks/data/train/cat.2266.jpg"
        string_val: "/notebooks/data/train/cat.7581.jpg"
        string_val: "/notebooks/data/train/dog.9289.jpg"
        string_val: "/notebooks/data/train/cat.12074.jpg"
        string_val: "/notebooks/data/train/cat.8778.jpg"
        string_val: "/notebooks/data/train/dog.9497.jpg"
        string_val: "/notebooks/data/train/cat.66.jpg"
        string_val: "/notebooks/data/train/cat.9049.jpg"
        string_val: "/notebooks/data/train/cat.103.jpg"
        string_val: "/notebooks/data/train/dog.11305.jpg"
        string_val: "/notebooks/data/train/cat.1338.jpg"
        string_val: "/notebooks/data/train/dog.8036.jpg"
        string_val: "/notebooks/data/train/cat.8586.jpg"
        string_val: "/notebooks/data/train/dog.2079.jpg"
        string_val: "/notebooks/data/train/cat.11863.jpg"
        string_val: "/notebooks/data/train/cat.11442.jpg"
        string_val: "/notebooks/data/train/dog.10903.jpg"
        string_val: "/notebooks/data/train/dog.5656.jpg"
        string_val: "/notebooks/data/train/cat.8492.jpg"
        string_val: "/notebooks/data/train/cat.299.jpg"
        string_val: "/notebooks/data/train/dog.3578.jpg"
        string_val: "/notebooks/data/train/dog.59.jpg"
        string_val: "/notebooks/data/train/cat.10184.jpg"
        string_val: "/notebooks/data/train/cat.9694.jpg"
        string_val: "/notebooks/data/train/dog.8194.jpg"
        string_val: "/notebooks/data/train/cat.10522.jpg"
        string_val: "/notebooks/data/train/cat.1219.jpg"
        string_val: "/notebooks/data/train/dog.4085.jpg"
        string_val: "/notebooks/data/train/dog.10336.jpg"
        string_val: "/notebooks/data/train/dog.936.jpg"
        string_val: "/notebooks/data/train/dog.4950.jpg"
        string_val: "/notebooks/data/train/cat.9369.jpg"
        string_val: "/notebooks/data/train/cat.11402.jpg"
        string_val: "/notebooks/data/train/dog.5299.jpg"
        string_val: "/notebooks/data/train/cat.7399.jpg"
        string_val: "/notebooks/data/train/cat.12299.jpg"
        string_val: "/notebooks/data/train/cat.9325.jpg"
        string_val: "/notebooks/data/train/cat.7680.jpg"
        string_val: "/notebooks/data/train/cat.5997.jpg"
        string_val: "/notebooks/data/train/dog.2551.jpg"
        string_val: "/notebooks/data/train/cat.2758.jpg"
        string_val: "/notebooks/data/train/dog.6679.jpg"
        string_val: "/notebooks/data/train/cat.7954.jpg"
        string_val: "/notebooks/data/train/dog.4829.jpg"
        string_val: "/notebooks/data/train/dog.4300.jpg"
        string_val: "/notebooks/data/train/dog.2434.jpg"
        string_val: "/notebooks/data/train/dog.5190.jpg"
        string_val: "/notebooks/data/train/cat.6479.jpg"
        string_val: "/notebooks/data/train/dog.2226.jpg"
        string_val: "/notebooks/data/train/cat.8291.jpg"
        string_val: "/notebooks/data/train/dog.6185.jpg"
        string_val: "/notebooks/data/train/dog.8241.jpg"
        string_val: "/notebooks/data/train/dog.7105.jpg"
        string_val: "/notebooks/data/train/cat.5959.jpg"
        string_val: "/notebooks/data/train/cat.8800.jpg"
        string_val: "/notebooks/data/train/cat.4931.jpg"
        string_val: "/notebooks/data/train/cat.11575.jpg"
        string_val: "/notebooks/data/train/dog.2163.jpg"
        string_val: "/notebooks/data/train/dog.11324.jpg"
        string_val: "/notebooks/data/train/dog.10751.jpg"
        string_val: "/notebooks/data/train/cat.2635.jpg"
        string_val: "/notebooks/data/train/cat.10811.jpg"
        string_val: "/notebooks/data/train/cat.2311.jpg"
        string_val: "/notebooks/data/train/dog.5854.jpg"
        string_val: "/notebooks/data/train/cat.10724.jpg"
        string_val: "/notebooks/data/train/dog.5267.jpg"
        string_val: "/notebooks/data/train/cat.2796.jpg"
        string_val: "/notebooks/data/train/cat.4239.jpg"
        string_val: "/notebooks/data/train/dog.9464.jpg"
        string_val: "/notebooks/data/train/dog.5594.jpg"
        string_val: "/notebooks/data/train/dog.4646.jpg"
        string_val: "/notebooks/data/train/cat.9756.jpg"
        string_val: "/notebooks/data/train/cat.9430.jpg"
        string_val: "/notebooks/data/train/cat.80.jpg"
        string_val: "/notebooks/data/train/cat.1731.jpg"
        string_val: "/notebooks/data/train/cat.6176.jpg"
        string_val: "/notebooks/data/train/cat.772.jpg"
        string_val: "/notebooks/data/train/dog.10341.jpg"
        string_val: "/notebooks/data/train/cat.3217.jpg"
        string_val: "/notebooks/data/train/dog.12079.jpg"
        string_val: "/notebooks/data/train/cat.10877.jpg"
        string_val: "/notebooks/data/train/dog.10846.jpg"
        string_val: "/notebooks/data/train/cat.1189.jpg"
        string_val: "/notebooks/data/train/cat.4921.jpg"
        string_val: "/notebooks/data/train/dog.286.jpg"
        string_val: "/notebooks/data/train/dog.5253.jpg"
        string_val: "/notebooks/data/train/dog.4135.jpg"
        string_val: "/notebooks/data/train/cat.6236.jpg"
        string_val: "/notebooks/data/train/cat.4037.jpg"
        string_val: "/notebooks/data/train/dog.4751.jpg"
        string_val: "/notebooks/data/train/cat.7302.jpg"
        string_val: "/notebooks/data/train/cat.11569.jpg"
        string_val: "/notebooks/data/train/dog.3276.jpg"
        string_val: "/notebooks/data/train/cat.3535.jpg"
        string_val: "/notebooks/data/train/cat.10511.jpg"
        string_val: "/notebooks/data/train/cat.8610.jpg"
        string_val: "/notebooks/data/train/dog.5081.jpg"
        string_val: "/notebooks/data/train/dog.3187.jpg"
        string_val: "/notebooks/data/train/cat.11846.jpg"
        string_val: "/notebooks/data/train/cat.290.jpg"
        string_val: "/notebooks/data/train/cat.1728.jpg"
        string_val: "/notebooks/data/train/cat.198.jpg"
        string_val: "/notebooks/data/train/cat.7006.jpg"
        string_val: "/notebooks/data/train/dog.416.jpg"
        string_val: "/notebooks/data/train/dog.8533.jpg"
        string_val: "/notebooks/data/train/dog.5463.jpg"
        string_val: "/notebooks/data/train/dog.4425.jpg"
        string_val: "/notebooks/data/train/cat.11547.jpg"
        string_val: "/notebooks/data/train/dog.11034.jpg"
        string_val: "/notebooks/data/train/cat.10711.jpg"
        string_val: "/notebooks/data/train/dog.9588.jpg"
        string_val: "/notebooks/data/train/dog.4364.jpg"
        string_val: "/notebooks/data/train/cat.4665.jpg"
        string_val: "/notebooks/data/train/cat.3372.jpg"
        string_val: "/notebooks/data/train/cat.11634.jpg"
        string_val: "/notebooks/data/train/cat.287.jpg"
        string_val: "/notebooks/data/train/dog.4970.jpg"
        string_val: "/notebooks/data/train/cat.726.jpg"
        string_val: "/notebooks/data/train/cat.8975.jpg"
        string_val: "/notebooks/data/train/dog.1799.jpg"
        string_val: "/notebooks/data/train/dog.7355.jpg"
        string_val: "/notebooks/data/train/dog.3259.jpg"
        string_val: "/notebooks/data/train/cat.3436.jpg"
        string_val: "/notebooks/data/train/dog.4873.jpg"
        string_val: "/notebooks/data/train/dog.11103.jpg"
        string_val: "/notebooks/data/train/dog.5828.jpg"
        string_val: "/notebooks/data/train/dog.405.jpg"
        string_val: "/notebooks/data/train/dog.6375.jpg"
        string_val: "/notebooks/data/train/dog.7375.jpg"
        string_val: "/notebooks/data/train/cat.10652.jpg"
        string_val: "/notebooks/data/train/dog.8511.jpg"
        string_val: "/notebooks/data/train/dog.8805.jpg"
        string_val: "/notebooks/data/train/dog.4878.jpg"
        string_val: "/notebooks/data/train/cat.3698.jpg"
        string_val: "/notebooks/data/train/dog.722.jpg"
        string_val: "/notebooks/data/train/dog.11743.jpg"
        string_val: "/notebooks/data/train/cat.8996.jpg"
        string_val: "/notebooks/data/train/cat.4844.jpg"
        string_val: "/notebooks/data/train/dog.10194.jpg"
        string_val: "/notebooks/data/train/dog.6996.jpg"
        string_val: "/notebooks/data/train/cat.11308.jpg"
        string_val: "/notebooks/data/train/dog.1836.jpg"
        string_val: "/notebooks/data/train/dog.7564.jpg"
        string_val: "/notebooks/data/train/dog.5963.jpg"
        string_val: "/notebooks/data/train/cat.8302.jpg"
        string_val: "/notebooks/data/train/cat.11585.jpg"
        string_val: "/notebooks/data/train/dog.11025.jpg"
        string_val: "/notebooks/data/train/cat.7360.jpg"
        string_val: "/notebooks/data/train/cat.5432.jpg"
        string_val: "/notebooks/data/train/cat.9581.jpg"
        string_val: "/notebooks/data/train/cat.3798.jpg"
        string_val: "/notebooks/data/train/cat.12143.jpg"
        string_val: "/notebooks/data/train/cat.1191.jpg"
        string_val: "/notebooks/data/train/cat.9873.jpg"
        string_val: "/notebooks/data/train/dog.8499.jpg"
        string_val: "/notebooks/data/train/cat.10327.jpg"
        string_val: "/notebooks/data/train/cat.7347.jpg"
        string_val: "/notebooks/data/train/cat.3049.jpg"
        string_val: "/notebooks/data/train/cat.4796.jpg"
        string_val: "/notebooks/data/train/cat.2859.jpg"
        string_val: "/notebooks/data/train/cat.2510.jpg"
        string_val: "/notebooks/data/train/dog.8918.jpg"
        string_val: "/notebooks/data/train/cat.5821.jpg"
        string_val: "/notebooks/data/train/cat.6363.jpg"
        string_val: "/notebooks/data/train/dog.2738.jpg"
        string_val: "/notebooks/data/train/dog.2588.jpg"
        string_val: "/notebooks/data/train/cat.3239.jpg"
        string_val: "/notebooks/data/train/dog.2303.jpg"
        string_val: "/notebooks/data/train/cat.6996.jpg"
        string_val: "/notebooks/data/train/cat.11335.jpg"
        string_val: "/notebooks/data/train/dog.7103.jpg"
        string_val: "/notebooks/data/train/cat.7829.jpg"
        string_val: "/notebooks/data/train/dog.3069.jpg"
        string_val: "/notebooks/data/train/cat.6126.jpg"
        string_val: "/notebooks/data/train/cat.8871.jpg"
        string_val: "/notebooks/data/train/dog.3960.jpg"
        string_val: "/notebooks/data/train/dog.335.jpg"
        string_val: "/notebooks/data/train/cat.7030.jpg"
        string_val: "/notebooks/data/train/cat.4473.jpg"
        string_val: "/notebooks/data/train/cat.7081.jpg"
        string_val: "/notebooks/data/train/cat.10129.jpg"
        string_val: "/notebooks/data/train/cat.10.jpg"
        string_val: "/notebooks/data/train/cat.10236.jpg"
        string_val: "/notebooks/data/train/cat.4686.jpg"
        string_val: "/notebooks/data/train/cat.4716.jpg"
        string_val: "/notebooks/data/train/dog.6612.jpg"
        string_val: "/notebooks/data/train/dog.4958.jpg"
        string_val: "/notebooks/data/train/cat.10887.jpg"
        string_val: "/notebooks/data/train/cat.7645.jpg"
        string_val: "/notebooks/data/train/cat.4948.jpg"
        string_val: "/notebooks/data/train/cat.4831.jpg"
        string_val: "/notebooks/data/train/cat.6561.jpg"
        string_val: "/notebooks/data/train/dog.11006.jpg"
        string_val: "/notebooks/data/train/dog.10991.jpg"
        string_val: "/notebooks/data/train/dog.5264.jpg"
        string_val: "/notebooks/data/train/cat.9358.jpg"
        string_val: "/notebooks/data/train/dog.7054.jpg"
        string_val: "/notebooks/data/train/cat.12014.jpg"
        string_val: "/notebooks/data/train/cat.9032.jpg"
        string_val: "/notebooks/data/train/dog.2577.jpg"
        string_val: "/notebooks/data/train/cat.7687.jpg"
        string_val: "/notebooks/data/train/dog.6860.jpg"
        string_val: "/notebooks/data/train/dog.4655.jpg"
        string_val: "/notebooks/data/train/dog.5278.jpg"
        string_val: "/notebooks/data/train/dog.1912.jpg"
        string_val: "/notebooks/data/train/dog.6059.jpg"
        string_val: "/notebooks/data/train/dog.10536.jpg"
        string_val: "/notebooks/data/train/dog.2420.jpg"
        string_val: "/notebooks/data/train/dog.10104.jpg"
        string_val: "/notebooks/data/train/dog.5736.jpg"
        string_val: "/notebooks/data/train/dog.11044.jpg"
        string_val: "/notebooks/data/train/dog.10934.jpg"
        string_val: "/notebooks/data/train/dog.10322.jpg"
        string_val: "/notebooks/data/train/dog.2327.jpg"
        string_val: "/notebooks/data/train/cat.3164.jpg"
        string_val: "/notebooks/data/train/dog.3292.jpg"
        string_val: "/notebooks/data/train/cat.9735.jpg"
        string_val: "/notebooks/data/train/cat.9451.jpg"
        string_val: "/notebooks/data/train/cat.201.jpg"
        string_val: "/notebooks/data/train/cat.4045.jpg"
        string_val: "/notebooks/data/train/dog.6748.jpg"
        string_val: "/notebooks/data/train/cat.8377.jpg"
        string_val: "/notebooks/data/train/cat.1580.jpg"
        string_val: "/notebooks/data/train/dog.6317.jpg"
        string_val: "/notebooks/data/train/cat.11636.jpg"
        string_val: "/notebooks/data/train/cat.1446.jpg"
        string_val: "/notebooks/data/train/dog.12312.jpg"
        string_val: "/notebooks/data/train/dog.9544.jpg"
        string_val: "/notebooks/data/train/cat.12056.jpg"
        string_val: "/notebooks/data/train/dog.1587.jpg"
        string_val: "/notebooks/data/train/dog.1366.jpg"
        string_val: "/notebooks/data/train/cat.6999.jpg"
        string_val: "/notebooks/data/train/cat.9545.jpg"
        string_val: "/notebooks/data/train/cat.11366.jpg"
        string_val: "/notebooks/data/train/cat.4723.jpg"
        string_val: "/notebooks/data/train/cat.1999.jpg"
        string_val: "/notebooks/data/train/cat.5181.jpg"
        string_val: "/notebooks/data/train/dog.3591.jpg"
        string_val: "/notebooks/data/train/cat.4153.jpg"
        string_val: "/notebooks/data/train/dog.961.jpg"
        string_val: "/notebooks/data/train/cat.7994.jpg"
        string_val: "/notebooks/data/train/cat.6673.jpg"
        string_val: "/notebooks/data/train/dog.5993.jpg"
        string_val: "/notebooks/data/train/dog.3947.jpg"
        string_val: "/notebooks/data/train/cat.11131.jpg"
        string_val: "/notebooks/data/train/dog.2845.jpg"
        string_val: "/notebooks/data/train/dog.11482.jpg"
        string_val: "/notebooks/data/train/cat.645.jpg"
        string_val: "/notebooks/data/train/dog.12150.jpg"
        string_val: "/notebooks/data/train/dog.2256.jpg"
        string_val: "/notebooks/data/train/cat.9341.jpg"
        string_val: "/notebooks/data/train/cat.4663.jpg"
        string_val: "/notebooks/data/train/dog.1531.jpg"
        string_val: "/notebooks/data/train/dog.161.jpg"
        string_val: "/notebooks/data/train/cat.7221.jpg"
        string_val: "/notebooks/data/train/dog.7280.jpg"
        string_val: "/notebooks/data/train/cat.2359.jpg"
        string_val: "/notebooks/data/train/dog.11439.jpg"
        string_val: "/notebooks/data/train/cat.8149.jpg"
        string_val: "/notebooks/data/train/dog.219.jpg"
        string_val: "/notebooks/data/train/dog.8518.jpg"
        string_val: "/notebooks/data/train/cat.10100.jpg"
        string_val: "/notebooks/data/train/dog.3718.jpg"
        string_val: "/notebooks/data/train/cat.5825.jpg"
        string_val: "/notebooks/data/train/dog.10654.jpg"
        string_val: "/notebooks/data/train/dog.5363.jpg"
        string_val: "/notebooks/data/train/cat.5012.jpg"
        string_val: "/notebooks/data/train/cat.3185.jpg"
        string_val: "/notebooks/data/train/cat.10864.jpg"
        string_val: "/notebooks/data/train/dog.6566.jpg"
        string_val: "/notebooks/data/train/cat.1122.jpg"
        string_val: "/notebooks/data/train/dog.3174.jpg"
        string_val: "/notebooks/data/train/dog.1073.jpg"
        string_val: "/notebooks/data/train/dog.9906.jpg"
        string_val: "/notebooks/data/train/dog.2442.jpg"
        string_val: "/notebooks/data/train/dog.7660.jpg"
        string_val: "/notebooks/data/train/dog.1294.jpg"
        string_val: "/notebooks/data/train/dog.7082.jpg"
        string_val: "/notebooks/data/train/dog.6354.jpg"
        string_val: "/notebooks/data/train/dog.4623.jpg"
        string_val: "/notebooks/data/train/cat.8643.jpg"
        string_val: "/notebooks/data/train/dog.9763.jpg"
        string_val: "/notebooks/data/train/cat.1331.jpg"
        string_val: "/notebooks/data/train/cat.11268.jpg"
        string_val: "/notebooks/data/train/cat.9880.jpg"
        string_val: "/notebooks/data/train/cat.3758.jpg"
        string_val: "/notebooks/data/train/dog.12143.jpg"
        string_val: "/notebooks/data/train/dog.11793.jpg"
        string_val: "/notebooks/data/train/cat.2445.jpg"
        string_val: "/notebooks/data/train/dog.8369.jpg"
        string_val: "/notebooks/data/train/dog.279.jpg"
        string_val: "/notebooks/data/train/cat.7003.jpg"
        string_val: "/notebooks/data/train/dog.4145.jpg"
        string_val: "/notebooks/data/train/cat.10207.jpg"
        string_val: "/notebooks/data/train/dog.374.jpg"
        string_val: "/notebooks/data/train/cat.2440.jpg"
        string_val: "/notebooks/data/train/dog.5385.jpg"
        string_val: "/notebooks/data/train/cat.4755.jpg"
        string_val: "/notebooks/data/train/cat.6695.jpg"
        string_val: "/notebooks/data/train/dog.7979.jpg"
        string_val: "/notebooks/data/train/dog.880.jpg"
        string_val: "/notebooks/data/train/cat.11496.jpg"
        string_val: "/notebooks/data/train/dog.8083.jpg"
        string_val: "/notebooks/data/train/dog.2804.jpg"
        string_val: "/notebooks/data/train/cat.8894.jpg"
        string_val: "/notebooks/data/train/dog.2263.jpg"
        string_val: "/notebooks/data/train/dog.5036.jpg"
        string_val: "/notebooks/data/train/dog.6305.jpg"
        string_val: "/notebooks/data/train/dog.9260.jpg"
        string_val: "/notebooks/data/train/dog.10367.jpg"
        string_val: "/notebooks/data/train/dog.6703.jpg"
        string_val: "/notebooks/data/train/cat.8521.jpg"
        string_val: "/notebooks/data/train/cat.6604.jpg"
        string_val: "/notebooks/data/train/cat.12139.jpg"
        string_val: "/notebooks/data/train/cat.6577.jpg"
        string_val: "/notebooks/data/train/cat.8557.jpg"
        string_val: "/notebooks/data/train/dog.4114.jpg"
        string_val: "/notebooks/data/train/cat.1932.jpg"
        string_val: "/notebooks/data/train/cat.12046.jpg"
        string_val: "/notebooks/data/train/dog.1999.jpg"
        string_val: "/notebooks/data/train/dog.4375.jpg"
        string_val: "/notebooks/data/train/dog.3845.jpg"
        string_val: "/notebooks/data/train/dog.6675.jpg"
        string_val: "/notebooks/data/train/dog.3334.jpg"
        string_val: "/notebooks/data/train/dog.2865.jpg"
        string_val: "/notebooks/data/train/cat.5736.jpg"
        string_val: "/notebooks/data/train/dog.4606.jpg"
        string_val: "/notebooks/data/train/cat.5922.jpg"
        string_val: "/notebooks/data/train/cat.2654.jpg"
        string_val: "/notebooks/data/train/cat.4123.jpg"
        string_val: "/notebooks/data/train/dog.12089.jpg"
        string_val: "/notebooks/data/train/dog.5311.jpg"
        string_val: "/notebooks/data/train/dog.11841.jpg"
        string_val: "/notebooks/data/train/cat.557.jpg"
        string_val: "/notebooks/data/train/cat.3161.jpg"
        string_val: "/notebooks/data/train/cat.3334.jpg"
        string_val: "/notebooks/data/train/cat.7569.jpg"
        string_val: "/notebooks/data/train/cat.7988.jpg"
        string_val: "/notebooks/data/train/dog.1199.jpg"
        string_val: "/notebooks/data/train/dog.6078.jpg"
        string_val: "/notebooks/data/train/cat.8399.jpg"
        string_val: "/notebooks/data/train/cat.4992.jpg"
        string_val: "/notebooks/data/train/dog.6291.jpg"
        string_val: "/notebooks/data/train/dog.11604.jpg"
        string_val: "/notebooks/data/train/dog.9022.jpg"
        string_val: "/notebooks/data/train/cat.4701.jpg"
        string_val: "/notebooks/data/train/dog.1763.jpg"
        string_val: "/notebooks/data/train/cat.9191.jpg"
        string_val: "/notebooks/data/train/dog.7481.jpg"
        string_val: "/notebooks/data/train/dog.1478.jpg"
        string_val: "/notebooks/data/train/dog.221.jpg"
        string_val: "/notebooks/data/train/cat.3987.jpg"
        string_val: "/notebooks/data/train/cat.4666.jpg"
        string_val: "/notebooks/data/train/dog.11925.jpg"
        string_val: "/notebooks/data/train/dog.5178.jpg"
        string_val: "/notebooks/data/train/dog.10860.jpg"
        string_val: "/notebooks/data/train/dog.4204.jpg"
        string_val: "/notebooks/data/train/dog.12072.jpg"
        string_val: "/notebooks/data/train/cat.5453.jpg"
        string_val: "/notebooks/data/train/dog.3092.jpg"
        string_val: "/notebooks/data/train/cat.1875.jpg"
        string_val: "/notebooks/data/train/dog.6610.jpg"
        string_val: "/notebooks/data/train/cat.8091.jpg"
        string_val: "/notebooks/data/train/dog.8066.jpg"
        string_val: "/notebooks/data/train/cat.10486.jpg"
        string_val: "/notebooks/data/train/cat.8844.jpg"
        string_val: "/notebooks/data/train/cat.10030.jpg"
        string_val: "/notebooks/data/train/cat.5382.jpg"
        string_val: "/notebooks/data/train/cat.2125.jpg"
        string_val: "/notebooks/data/train/cat.7861.jpg"
        string_val: "/notebooks/data/train/dog.4395.jpg"
        string_val: "/notebooks/data/train/dog.10614.jpg"
        string_val: "/notebooks/data/train/dog.10727.jpg"
        string_val: "/notebooks/data/train/cat.2671.jpg"
        string_val: "/notebooks/data/train/cat.5164.jpg"
        string_val: "/notebooks/data/train/dog.3052.jpg"
        string_val: "/notebooks/data/train/dog.2619.jpg"
        string_val: "/notebooks/data/train/dog.12416.jpg"
        string_val: "/notebooks/data/train/dog.5093.jpg"
        string_val: "/notebooks/data/train/cat.10106.jpg"
        string_val: "/notebooks/data/train/dog.586.jpg"
        string_val: "/notebooks/data/train/cat.8460.jpg"
        string_val: "/notebooks/data/train/dog.3514.jpg"
        string_val: "/notebooks/data/train/cat.9518.jpg"
        string_val: "/notebooks/data/train/dog.478.jpg"
        string_val: "/notebooks/data/train/cat.9175.jpg"
        string_val: "/notebooks/data/train/cat.4117.jpg"
        string_val: "/notebooks/data/train/cat.8186.jpg"
        string_val: "/notebooks/data/train/dog.566.jpg"
        string_val: "/notebooks/data/train/dog.7391.jpg"
        string_val: "/notebooks/data/train/dog.6334.jpg"
        string_val: "/notebooks/data/train/cat.10454.jpg"
        string_val: "/notebooks/data/train/cat.4201.jpg"
        string_val: "/notebooks/data/train/cat.5111.jpg"
        string_val: "/notebooks/data/train/dog.5281.jpg"
        string_val: "/notebooks/data/train/dog.4308.jpg"
        string_val: "/notebooks/data/train/cat.2965.jpg"
        string_val: "/notebooks/data/train/dog.5766.jpg"
        string_val: "/notebooks/data/train/cat.10103.jpg"
        string_val: "/notebooks/data/train/cat.12110.jpg"
        string_val: "/notebooks/data/train/cat.11992.jpg"
        string_val: "/notebooks/data/train/cat.12344.jpg"
        string_val: "/notebooks/data/train/cat.11945.jpg"
        string_val: "/notebooks/data/train/dog.4299.jpg"
        string_val: "/notebooks/data/train/cat.7268.jpg"
        string_val: "/notebooks/data/train/cat.4195.jpg"
        string_val: "/notebooks/data/train/dog.6100.jpg"
        string_val: "/notebooks/data/train/dog.3728.jpg"
        string_val: "/notebooks/data/train/dog.11021.jpg"
        string_val: "/notebooks/data/train/cat.9362.jpg"
        string_val: "/notebooks/data/train/dog.4616.jpg"
        string_val: "/notebooks/data/train/cat.1743.jpg"
        string_val: "/notebooks/data/train/dog.11157.jpg"
        string_val: "/notebooks/data/train/cat.12167.jpg"
        string_val: "/notebooks/data/train/cat.8152.jpg"
        string_val: "/notebooks/data/train/cat.6019.jpg"
        string_val: "/notebooks/data/train/cat.3137.jpg"
        string_val: "/notebooks/data/train/cat.6106.jpg"
        string_val: "/notebooks/data/train/dog.6550.jpg"
        string_val: "/notebooks/data/train/dog.5677.jpg"
        string_val: "/notebooks/data/train/dog.6180.jpg"
        string_val: "/notebooks/data/train/dog.959.jpg"
        string_val: "/notebooks/data/train/dog.11654.jpg"
        string_val: "/notebooks/data/train/dog.2160.jpg"
        string_val: "/notebooks/data/train/dog.10589.jpg"
        string_val: "/notebooks/data/train/dog.1420.jpg"
        string_val: "/notebooks/data/train/cat.1346.jpg"
        string_val: "/notebooks/data/train/cat.8579.jpg"
        string_val: "/notebooks/data/train/cat.5714.jpg"
        string_val: "/notebooks/data/train/dog.8528.jpg"
        string_val: "/notebooks/data/train/cat.2943.jpg"
        string_val: "/notebooks/data/train/dog.11138.jpg"
        string_val: "/notebooks/data/train/dog.7777.jpg"
        string_val: "/notebooks/data/train/cat.10663.jpg"
        string_val: "/notebooks/data/train/cat.10837.jpg"
        string_val: "/notebooks/data/train/cat.11552.jpg"
        string_val: "/notebooks/data/train/dog.4978.jpg"
        string_val: "/notebooks/data/train/dog.115.jpg"
        string_val: "/notebooks/data/train/dog.7689.jpg"
        string_val: "/notebooks/data/train/cat.4329.jpg"
        string_val: "/notebooks/data/train/dog.2021.jpg"
        string_val: "/notebooks/data/train/dog.6855.jpg"
        string_val: "/notebooks/data/train/dog.11534.jpg"
        string_val: "/notebooks/data/train/cat.3200.jpg"
        string_val: "/notebooks/data/train/dog.9379.jpg"
        string_val: "/notebooks/data/train/cat.7418.jpg"
        string_val: "/notebooks/data/train/cat.11978.jpg"
        string_val: "/notebooks/data/train/cat.12170.jpg"
        string_val: "/notebooks/data/train/cat.408.jpg"
        string_val: "/notebooks/data/train/dog.10181.jpg"
        string_val: "/notebooks/data/train/cat.5588.jpg"
        string_val: "/notebooks/data/train/cat.1766.jpg"
        string_val: "/notebooks/data/train/cat.10794.jpg"
        string_val: "/notebooks/data/train/dog.11285.jpg"
        string_val: "/notebooks/data/train/cat.5234.jpg"
        string_val: "/notebooks/data/train/dog.601.jpg"
        string_val: "/notebooks/data/train/dog.11877.jpg"
        string_val: "/notebooks/data/train/cat.2254.jpg"
        string_val: "/notebooks/data/train/dog.2521.jpg"
        string_val: "/notebooks/data/train/dog.2452.jpg"
        string_val: "/notebooks/data/train/cat.5601.jpg"
        string_val: "/notebooks/data/train/dog.8739.jpg"
        string_val: "/notebooks/data/train/cat.4281.jpg"
        string_val: "/notebooks/data/train/dog.11120.jpg"
        string_val: "/notebooks/data/train/cat.5484.jpg"
        string_val: "/notebooks/data/train/cat.10500.jpg"
        string_val: "/notebooks/data/train/dog.7806.jpg"
        string_val: "/notebooks/data/train/dog.12359.jpg"
        string_val: "/notebooks/data/train/cat.8489.jpg"
        string_val: "/notebooks/data/train/dog.5800.jpg"
        string_val: "/notebooks/data/train/dog.5575.jpg"
        string_val: "/notebooks/data/train/cat.517.jpg"
        string_val: "/notebooks/data/train/cat.4023.jpg"
        string_val: "/notebooks/data/train/dog.3155.jpg"
        string_val: "/notebooks/data/train/dog.1562.jpg"
        string_val: "/notebooks/data/train/cat.9504.jpg"
        string_val: "/notebooks/data/train/dog.1707.jpg"
        string_val: "/notebooks/data/train/dog.9494.jpg"
        string_val: "/notebooks/data/train/dog.5816.jpg"
        string_val: "/notebooks/data/train/dog.8450.jpg"
        string_val: "/notebooks/data/train/dog.4239.jpg"
        string_val: "/notebooks/data/train/cat.4301.jpg"
        string_val: "/notebooks/data/train/cat.1113.jpg"
        string_val: "/notebooks/data/train/cat.9639.jpg"
        string_val: "/notebooks/data/train/cat.6116.jpg"
        string_val: "/notebooks/data/train/cat.4212.jpg"
        string_val: "/notebooks/data/train/cat.10513.jpg"
        string_val: "/notebooks/data/train/dog.2150.jpg"
        string_val: "/notebooks/data/train/cat.7417.jpg"
        string_val: "/notebooks/data/train/cat.2120.jpg"
        string_val: "/notebooks/data/train/cat.7556.jpg"
        string_val: "/notebooks/data/train/cat.4834.jpg"
        string_val: "/notebooks/data/train/cat.650.jpg"
        string_val: "/notebooks/data/train/cat.2162.jpg"
        string_val: "/notebooks/data/train/cat.10537.jpg"
        string_val: "/notebooks/data/train/cat.8786.jpg"
        string_val: "/notebooks/data/train/dog.963.jpg"
        string_val: "/notebooks/data/train/cat.3486.jpg"
        string_val: "/notebooks/data/train/cat.8559.jpg"
        string_val: "/notebooks/data/train/dog.10337.jpg"
        string_val: "/notebooks/data/train/dog.136.jpg"
        string_val: "/notebooks/data/train/dog.11609.jpg"
        string_val: "/notebooks/data/train/dog.8821.jpg"
        string_val: "/notebooks/data/train/dog.4377.jpg"
        string_val: "/notebooks/data/train/cat.2660.jpg"
        string_val: "/notebooks/data/train/dog.10241.jpg"
        string_val: "/notebooks/data/train/cat.10539.jpg"
        string_val: "/notebooks/data/train/cat.9722.jpg"
        string_val: "/notebooks/data/train/cat.3184.jpg"
        string_val: "/notebooks/data/train/dog.239.jpg"
        string_val: "/notebooks/data/train/cat.1576.jpg"
        string_val: "/notebooks/data/train/dog.4172.jpg"
        string_val: "/notebooks/data/train/cat.10421.jpg"
        string_val: "/notebooks/data/train/dog.9270.jpg"
        string_val: "/notebooks/data/train/cat.11435.jpg"
        string_val: "/notebooks/data/train/dog.7245.jpg"
        string_val: "/notebooks/data/train/cat.2652.jpg"
        string_val: "/notebooks/data/train/cat.1212.jpg"
        string_val: "/notebooks/data/train/dog.6281.jpg"
        string_val: "/notebooks/data/train/cat.2372.jpg"
        string_val: "/notebooks/data/train/dog.11962.jpg"
        string_val: "/notebooks/data/train/cat.6867.jpg"
        string_val: "/notebooks/data/train/cat.9493.jpg"
        string_val: "/notebooks/data/train/dog.12011.jpg"
        string_val: "/notebooks/data/train/dog.809.jpg"
        string_val: "/notebooks/data/train/cat.2072.jpg"
        string_val: "/notebooks/data/train/cat.2740.jpg"
        string_val: "/notebooks/data/train/cat.2955.jpg"
        string_val: "/notebooks/data/train/cat.8138.jpg"
        string_val: "/notebooks/data/train/dog.5723.jpg"
        string_val: "/notebooks/data/train/cat.11386.jpg"
        string_val: "/notebooks/data/train/cat.5165.jpg"
        string_val: "/notebooks/data/train/dog.433.jpg"
        string_val: "/notebooks/data/train/dog.7125.jpg"
        string_val: "/notebooks/data/train/dog.2133.jpg"
        string_val: "/notebooks/data/train/cat.5724.jpg"
        string_val: "/notebooks/data/train/dog.4636.jpg"
        string_val: "/notebooks/data/train/dog.1789.jpg"
        string_val: "/notebooks/data/train/dog.7440.jpg"
        string_val: "/notebooks/data/train/cat.11432.jpg"
        string_val: "/notebooks/data/train/cat.11198.jpg"
        string_val: "/notebooks/data/train/dog.6734.jpg"
        string_val: "/notebooks/data/train/cat.5405.jpg"
        string_val: "/notebooks/data/train/cat.6751.jpg"
        string_val: "/notebooks/data/train/cat.3767.jpg"
        string_val: "/notebooks/data/train/cat.8002.jpg"
        string_val: "/notebooks/data/train/cat.5788.jpg"
        string_val: "/notebooks/data/train/dog.10202.jpg"
        string_val: "/notebooks/data/train/cat.2337.jpg"
        string_val: "/notebooks/data/train/dog.178.jpg"
        string_val: "/notebooks/data/train/dog.3940.jpg"
        string_val: "/notebooks/data/train/dog.4454.jpg"
        string_val: "/notebooks/data/train/dog.10532.jpg"
        string_val: "/notebooks/data/train/dog.1277.jpg"
        string_val: "/notebooks/data/train/dog.5719.jpg"
        string_val: "/notebooks/data/train/cat.11709.jpg"
        string_val: "/notebooks/data/train/cat.2909.jpg"
        string_val: "/notebooks/data/train/cat.2861.jpg"
        string_val: "/notebooks/data/train/cat.3514.jpg"
        string_val: "/notebooks/data/train/dog.10918.jpg"
        string_val: "/notebooks/data/train/cat.925.jpg"
        string_val: "/notebooks/data/train/dog.10660.jpg"
        string_val: "/notebooks/data/train/dog.3303.jpg"
        string_val: "/notebooks/data/train/cat.3293.jpg"
        string_val: "/notebooks/data/train/cat.10619.jpg"
        string_val: "/notebooks/data/train/cat.10682.jpg"
        string_val: "/notebooks/data/train/dog.11068.jpg"
        string_val: "/notebooks/data/train/dog.4002.jpg"
        string_val: "/notebooks/data/train/dog.4356.jpg"
        string_val: "/notebooks/data/train/cat.8275.jpg"
        string_val: "/notebooks/data/train/cat.370.jpg"
        string_val: "/notebooks/data/train/cat.2736.jpg"
        string_val: "/notebooks/data/train/dog.9964.jpg"
        string_val: "/notebooks/data/train/dog.11438.jpg"
        string_val: "/notebooks/data/train/dog.2701.jpg"
        string_val: "/notebooks/data/train/dog.11974.jpg"
        string_val: "/notebooks/data/train/dog.2448.jpg"
        string_val: "/notebooks/data/train/dog.2646.jpg"
        string_val: "/notebooks/data/train/dog.12275.jpg"
        string_val: "/notebooks/data/train/dog.12381.jpg"
        string_val: "/notebooks/data/train/dog.9713.jpg"
        string_val: "/notebooks/data/train/dog.527.jpg"
        string_val: "/notebooks/data/train/cat.7457.jpg"
        string_val: "/notebooks/data/train/dog.2945.jpg"
        string_val: "/notebooks/data/train/cat.11480.jpg"
        string_val: "/notebooks/data/train/cat.4040.jpg"
        string_val: "/notebooks/data/train/cat.4221.jpg"
        string_val: "/notebooks/data/train/cat.4612.jpg"
        string_val: "/notebooks/data/train/cat.6951.jpg"
        string_val: "/notebooks/data/train/dog.6125.jpg"
        string_val: "/notebooks/data/train/cat.2282.jpg"
        string_val: "/notebooks/data/train/cat.5023.jpg"
        string_val: "/notebooks/data/train/cat.3134.jpg"
        string_val: "/notebooks/data/train/dog.7730.jpg"
        string_val: "/notebooks/data/train/cat.9157.jpg"
        string_val: "/notebooks/data/train/dog.4979.jpg"
        string_val: "/notebooks/data/train/cat.7926.jpg"
        string_val: "/notebooks/data/train/dog.4141.jpg"
        string_val: "/notebooks/data/train/dog.11719.jpg"
        string_val: "/notebooks/data/train/cat.7533.jpg"
        string_val: "/notebooks/data/train/dog.7496.jpg"
        string_val: "/notebooks/data/train/dog.420.jpg"
        string_val: "/notebooks/data/train/cat.9201.jpg"
        string_val: "/notebooks/data/train/cat.6960.jpg"
        string_val: "/notebooks/data/train/dog.7248.jpg"
        string_val: "/notebooks/data/train/dog.8943.jpg"
        string_val: "/notebooks/data/train/cat.10672.jpg"
        string_val: "/notebooks/data/train/cat.4523.jpg"
        string_val: "/notebooks/data/train/dog.1000.jpg"
        string_val: "/notebooks/data/train/cat.3166.jpg"
        string_val: "/notebooks/data/train/cat.11346.jpg"
        string_val: "/notebooks/data/train/cat.10791.jpg"
        string_val: "/notebooks/data/train/cat.6977.jpg"
        string_val: "/notebooks/data/train/cat.7293.jpg"
        string_val: "/notebooks/data/train/dog.9326.jpg"
        string_val: "/notebooks/data/train/dog.11720.jpg"
        string_val: "/notebooks/data/train/dog.6737.jpg"
        string_val: "/notebooks/data/train/cat.4336.jpg"
        string_val: "/notebooks/data/train/dog.2456.jpg"
        string_val: "/notebooks/data/train/dog.7275.jpg"
        string_val: "/notebooks/data/train/cat.10764.jpg"
        string_val: "/notebooks/data/train/cat.6982.jpg"
        string_val: "/notebooks/data/train/dog.6719.jpg"
        string_val: "/notebooks/data/train/dog.2606.jpg"
        string_val: "/notebooks/data/train/dog.8842.jpg"
        string_val: "/notebooks/data/train/dog.3434.jpg"
        string_val: "/notebooks/data/train/dog.5420.jpg"
        string_val: "/notebooks/data/train/cat.6038.jpg"
        string_val: "/notebooks/data/train/dog.4231.jpg"
        string_val: "/notebooks/data/train/cat.169.jpg"
        string_val: "/notebooks/data/train/cat.8340.jpg"
        string_val: "/notebooks/data/train/dog.5045.jpg"
        string_val: "/notebooks/data/train/dog.8752.jpg"
        string_val: "/notebooks/data/train/cat.11323.jpg"
        string_val: "/notebooks/data/train/cat.12376.jpg"
        string_val: "/notebooks/data/train/dog.1140.jpg"
        string_val: "/notebooks/data/train/dog.1962.jpg"
        string_val: "/notebooks/data/train/dog.11170.jpg"
        string_val: "/notebooks/data/train/dog.3607.jpg"
        string_val: "/notebooks/data/train/dog.9592.jpg"
        string_val: "/notebooks/data/train/cat.8632.jpg"
        string_val: "/notebooks/data/train/dog.6068.jpg"
        string_val: "/notebooks/data/train/dog.5789.jpg"
        string_val: "/notebooks/data/train/dog.4008.jpg"
        string_val: "/notebooks/data/train/dog.10377.jpg"
        string_val: "/notebooks/data/train/dog.11146.jpg"
        string_val: "/notebooks/data/train/dog.3030.jpg"
        string_val: "/notebooks/data/train/cat.4357.jpg"
        string_val: "/notebooks/data/train/cat.4313.jpg"
        string_val: "/notebooks/data/train/dog.2146.jpg"
        string_val: "/notebooks/data/train/cat.2253.jpg"
        string_val: "/notebooks/data/train/dog.8053.jpg"
        string_val: "/notebooks/data/train/cat.4572.jpg"
        string_val: "/notebooks/data/train/cat.12121.jpg"
        string_val: "/notebooks/data/train/cat.6925.jpg"
        string_val: "/notebooks/data/train/cat.4790.jpg"
        string_val: "/notebooks/data/train/cat.6136.jpg"
        string_val: "/notebooks/data/train/dog.3215.jpg"
        string_val: "/notebooks/data/train/cat.7518.jpg"
        string_val: "/notebooks/data/train/cat.9133.jpg"
        string_val: "/notebooks/data/train/dog.4588.jpg"
        string_val: "/notebooks/data/train/cat.5364.jpg"
        string_val: "/notebooks/data/train/cat.12090.jpg"
        string_val: "/notebooks/data/train/cat.10938.jpg"
        string_val: "/notebooks/data/train/dog.2676.jpg"
        string_val: "/notebooks/data/train/cat.2978.jpg"
        string_val: "/notebooks/data/train/dog.2084.jpg"
        string_val: "/notebooks/data/train/dog.6758.jpg"
        string_val: "/notebooks/data/train/dog.1285.jpg"
        string_val: "/notebooks/data/train/cat.2141.jpg"
        string_val: "/notebooks/data/train/dog.4894.jpg"
        string_val: "/notebooks/data/train/cat.7817.jpg"
        string_val: "/notebooks/data/train/cat.350.jpg"
        string_val: "/notebooks/data/train/cat.12180.jpg"
        string_val: "/notebooks/data/train/cat.9645.jpg"
        string_val: "/notebooks/data/train/cat.10935.jpg"
        string_val: "/notebooks/data/train/dog.3623.jpg"
        string_val: "/notebooks/data/train/dog.11970.jpg"
        string_val: "/notebooks/data/train/dog.9506.jpg"
        string_val: "/notebooks/data/train/cat.251.jpg"
        string_val: "/notebooks/data/train/cat.10936.jpg"
        string_val: "/notebooks/data/train/cat.9424.jpg"
        string_val: "/notebooks/data/train/dog.2969.jpg"
        string_val: "/notebooks/data/train/dog.8418.jpg"
        string_val: "/notebooks/data/train/cat.1397.jpg"
        string_val: "/notebooks/data/train/cat.3822.jpg"
        string_val: "/notebooks/data/train/dog.11960.jpg"
        string_val: "/notebooks/data/train/dog.1072.jpg"
        string_val: "/notebooks/data/train/dog.10888.jpg"
        string_val: "/notebooks/data/train/dog.11545.jpg"
        string_val: "/notebooks/data/train/cat.4032.jpg"
        string_val: "/notebooks/data/train/cat.1768.jpg"
        string_val: "/notebooks/data/train/dog.4455.jpg"
        string_val: "/notebooks/data/train/dog.7817.jpg"
        string_val: "/notebooks/data/train/cat.7406.jpg"
        string_val: "/notebooks/data/train/dog.6990.jpg"
        string_val: "/notebooks/data/train/dog.6894.jpg"
        string_val: "/notebooks/data/train/dog.11478.jpg"
        string_val: "/notebooks/data/train/cat.5355.jpg"
        string_val: "/notebooks/data/train/cat.2792.jpg"
        string_val: "/notebooks/data/train/dog.6884.jpg"
        string_val: "/notebooks/data/train/cat.10289.jpg"
        string_val: "/notebooks/data/train/cat.1931.jpg"
        string_val: "/notebooks/data/train/dog.9064.jpg"
        string_val: "/notebooks/data/train/dog.4244.jpg"
        string_val: "/notebooks/data/train/cat.6709.jpg"
        string_val: "/notebooks/data/train/cat.5108.jpg"
        string_val: "/notebooks/data/train/dog.11312.jpg"
        string_val: "/notebooks/data/train/dog.5138.jpg"
        string_val: "/notebooks/data/train/cat.1099.jpg"
        string_val: "/notebooks/data/train/dog.11870.jpg"
        string_val: "/notebooks/data/train/cat.9128.jpg"
        string_val: "/notebooks/data/train/cat.1995.jpg"
        string_val: "/notebooks/data/train/dog.5151.jpg"
        string_val: "/notebooks/data/train/dog.5134.jpg"
        string_val: "/notebooks/data/train/cat.7022.jpg"
        string_val: "/notebooks/data/train/dog.3211.jpg"
        string_val: "/notebooks/data/train/dog.6504.jpg"
        string_val: "/notebooks/data/train/dog.2868.jpg"
        string_val: "/notebooks/data/train/dog.1745.jpg"
        string_val: "/notebooks/data/train/dog.10062.jpg"
        string_val: "/notebooks/data/train/dog.1242.jpg"
        string_val: "/notebooks/data/train/cat.2658.jpg"
        string_val: "/notebooks/data/train/cat.6042.jpg"
        string_val: "/notebooks/data/train/cat.2463.jpg"
        string_val: "/notebooks/data/train/cat.1016.jpg"
        string_val: "/notebooks/data/train/dog.9315.jpg"
        string_val: "/notebooks/data/train/dog.8994.jpg"
        string_val: "/notebooks/data/train/dog.3830.jpg"
        string_val: "/notebooks/data/train/cat.11997.jpg"
        string_val: "/notebooks/data/train/cat.5734.jpg"
        string_val: "/notebooks/data/train/cat.1709.jpg"
        string_val: "/notebooks/data/train/cat.5617.jpg"
        string_val: "/notebooks/data/train/cat.2150.jpg"
        string_val: "/notebooks/data/train/cat.7431.jpg"
        string_val: "/notebooks/data/train/dog.1228.jpg"
        string_val: "/notebooks/data/train/cat.3525.jpg"
        string_val: "/notebooks/data/train/cat.3489.jpg"
        string_val: "/notebooks/data/train/cat.10147.jpg"
        string_val: "/notebooks/data/train/dog.510.jpg"
        string_val: "/notebooks/data/train/dog.8358.jpg"
        string_val: "/notebooks/data/train/cat.1643.jpg"
        string_val: "/notebooks/data/train/dog.11060.jpg"
        string_val: "/notebooks/data/train/cat.11469.jpg"
        string_val: "/notebooks/data/train/dog.4615.jpg"
        string_val: "/notebooks/data/train/dog.11469.jpg"
        string_val: "/notebooks/data/train/dog.4295.jpg"
        string_val: "/notebooks/data/train/dog.6770.jpg"
        string_val: "/notebooks/data/train/cat.5196.jpg"
        string_val: "/notebooks/data/train/dog.4590.jpg"
        string_val: "/notebooks/data/train/cat.10212.jpg"
        string_val: "/notebooks/data/train/cat.5711.jpg"
        string_val: "/notebooks/data/train/dog.3848.jpg"
        string_val: "/notebooks/data/train/cat.5607.jpg"
        string_val: "/notebooks/data/train/cat.705.jpg"
        string_val: "/notebooks/data/train/cat.7780.jpg"
        string_val: "/notebooks/data/train/cat.4167.jpg"
        string_val: "/notebooks/data/train/dog.11406.jpg"
        string_val: "/notebooks/data/train/dog.2761.jpg"
        string_val: "/notebooks/data/train/dog.11535.jpg"
        string_val: "/notebooks/data/train/cat.6619.jpg"
        string_val: "/notebooks/data/train/dog.2478.jpg"
        string_val: "/notebooks/data/train/cat.10597.jpg"
        string_val: "/notebooks/data/train/cat.8320.jpg"
        string_val: "/notebooks/data/train/dog.18.jpg"
        string_val: "/notebooks/data/train/dog.10798.jpg"
        string_val: "/notebooks/data/train/cat.10966.jpg"
        string_val: "/notebooks/data/train/cat.8375.jpg"
        string_val: "/notebooks/data/train/dog.10010.jpg"
        string_val: "/notebooks/data/train/cat.9303.jpg"
        string_val: "/notebooks/data/train/cat.3240.jpg"
        string_val: "/notebooks/data/train/cat.1800.jpg"
        string_val: "/notebooks/data/train/cat.558.jpg"
        string_val: "/notebooks/data/train/cat.2293.jpg"
        string_val: "/notebooks/data/train/dog.5700.jpg"
        string_val: "/notebooks/data/train/cat.2110.jpg"
        string_val: "/notebooks/data/train/cat.638.jpg"
        string_val: "/notebooks/data/train/dog.1279.jpg"
        string_val: "/notebooks/data/train/cat.2232.jpg"
        string_val: "/notebooks/data/train/dog.10792.jpg"
        string_val: "/notebooks/data/train/dog.8605.jpg"
        string_val: "/notebooks/data/train/dog.2807.jpg"
        string_val: "/notebooks/data/train/cat.4668.jpg"
        string_val: "/notebooks/data/train/dog.3291.jpg"
        string_val: "/notebooks/data/train/dog.232.jpg"
        string_val: "/notebooks/data/train/dog.8184.jpg"
        string_val: "/notebooks/data/train/dog.2711.jpg"
        string_val: "/notebooks/data/train/cat.11632.jpg"
        string_val: "/notebooks/data/train/dog.5321.jpg"
        string_val: "/notebooks/data/train/dog.516.jpg"
        string_val: "/notebooks/data/train/dog.9791.jpg"
        string_val: "/notebooks/data/train/dog.3320.jpg"
        string_val: "/notebooks/data/train/cat.1335.jpg"
        string_val: "/notebooks/data/train/cat.8605.jpg"
        string_val: "/notebooks/data/train/dog.10045.jpg"
        string_val: "/notebooks/data/train/dog.1914.jpg"
        string_val: "/notebooks/data/train/cat.10762.jpg"
        string_val: "/notebooks/data/train/dog.8124.jpg"
        string_val: "/notebooks/data/train/dog.8264.jpg"
        string_val: "/notebooks/data/train/dog.10772.jpg"
        string_val: "/notebooks/data/train/dog.3609.jpg"
        string_val: "/notebooks/data/train/cat.11512.jpg"
        string_val: "/notebooks/data/train/dog.3323.jpg"
        string_val: "/notebooks/data/train/dog.7872.jpg"
        string_val: "/notebooks/data/train/dog.8406.jpg"
        string_val: "/notebooks/data/train/dog.4471.jpg"
        string_val: "/notebooks/data/train/dog.280.jpg"
        string_val: "/notebooks/data/train/cat.11548.jpg"
        string_val: "/notebooks/data/train/cat.1821.jpg"
        string_val: "/notebooks/data/train/dog.1601.jpg"
        string_val: "/notebooks/data/train/cat.4965.jpg"
        string_val: "/notebooks/data/train/dog.5215.jpg"
        string_val: "/notebooks/data/train/cat.1273.jpg"
        string_val: "/notebooks/data/train/cat.10929.jpg"
        string_val: "/notebooks/data/train/dog.10655.jpg"
        string_val: "/notebooks/data/train/cat.1303.jpg"
        string_val: "/notebooks/data/train/dog.12245.jpg"
        string_val: "/notebooks/data/train/cat.2862.jpg"
        string_val: "/notebooks/data/train/cat.12030.jpg"
        string_val: "/notebooks/data/train/dog.8544.jpg"
        string_val: "/notebooks/data/train/dog.11294.jpg"
        string_val: "/notebooks/data/train/cat.9548.jpg"
        string_val: "/notebooks/data/train/dog.2045.jpg"
        string_val: "/notebooks/data/train/dog.4091.jpg"
        string_val: "/notebooks/data/train/dog.11941.jpg"
        string_val: "/notebooks/data/train/dog.4924.jpg"
        string_val: "/notebooks/data/train/cat.4814.jpg"
        string_val: "/notebooks/data/train/cat.9955.jpg"
        string_val: "/notebooks/data/train/cat.7631.jpg"
        string_val: "/notebooks/data/train/dog.11046.jpg"
        string_val: "/notebooks/data/train/dog.1093.jpg"
        string_val: "/notebooks/data/train/cat.5555.jpg"
        string_val: "/notebooks/data/train/cat.1423.jpg"
        string_val: "/notebooks/data/train/dog.7027.jpg"
        string_val: "/notebooks/data/train/dog.1311.jpg"
        string_val: "/notebooks/data/train/cat.8244.jpg"
        string_val: "/notebooks/data/train/cat.1328.jpg"
        string_val: "/notebooks/data/train/cat.639.jpg"
        string_val: "/notebooks/data/train/dog.775.jpg"
        string_val: "/notebooks/data/train/cat.10643.jpg"
        string_val: "/notebooks/data/train/dog.7881.jpg"
        string_val: "/notebooks/data/train/dog.7862.jpg"
        string_val: "/notebooks/data/train/cat.12222.jpg"
        string_val: "/notebooks/data/train/dog.10237.jpg"
        string_val: "/notebooks/data/train/dog.8397.jpg"
        string_val: "/notebooks/data/train/dog.4759.jpg"
        string_val: "/notebooks/data/train/dog.10877.jpg"
        string_val: "/notebooks/data/train/cat.7712.jpg"
        string_val: "/notebooks/data/train/cat.11373.jpg"
        string_val: "/notebooks/data/train/dog.3532.jpg"
        string_val: "/notebooks/data/train/dog.9383.jpg"
        string_val: "/notebooks/data/train/dog.10585.jpg"
        string_val: "/notebooks/data/train/cat.2090.jpg"
        string_val: "/notebooks/data/train/dog.11990.jpg"
        string_val: "/notebooks/data/train/dog.4256.jpg"
        string_val: "/notebooks/data/train/dog.9261.jpg"
        string_val: "/notebooks/data/train/cat.5426.jpg"
        string_val: "/notebooks/data/train/dog.2768.jpg"
        string_val: "/notebooks/data/train/dog.1720.jpg"
        string_val: "/notebooks/data/train/cat.1753.jpg"
        string_val: "/notebooks/data/train/cat.2614.jpg"
        string_val: "/notebooks/data/train/cat.10281.jpg"
        string_val: "/notebooks/data/train/dog.259.jpg"
        string_val: "/notebooks/data/train/cat.4966.jpg"
        string_val: "/notebooks/data/train/dog.10722.jpg"
        string_val: "/notebooks/data/train/cat.2643.jpg"
        string_val: "/notebooks/data/train/cat.6282.jpg"
        string_val: "/notebooks/data/train/dog.10040.jpg"
        string_val: "/notebooks/data/train/dog.7344.jpg"
        string_val: "/notebooks/data/train/dog.1769.jpg"
        string_val: "/notebooks/data/train/dog.11090.jpg"
        string_val: "/notebooks/data/train/cat.3165.jpg"
        string_val: "/notebooks/data/train/dog.9742.jpg"
        string_val: "/notebooks/data/train/dog.1907.jpg"
        string_val: "/notebooks/data/train/cat.8570.jpg"
        string_val: "/notebooks/data/train/cat.11756.jpg"
        string_val: "/notebooks/data/train/cat.1997.jpg"
        string_val: "/notebooks/data/train/cat.11303.jpg"
        string_val: "/notebooks/data/train/dog.421.jpg"
        string_val: "/notebooks/data/train/dog.9076.jpg"
        string_val: "/notebooks/data/train/cat.3552.jpg"
        string_val: "/notebooks/data/train/cat.326.jpg"
        string_val: "/notebooks/data/train/dog.5248.jpg"
        string_val: "/notebooks/data/train/cat.6791.jpg"
        string_val: "/notebooks/data/train/cat.4601.jpg"
        string_val: "/notebooks/data/train/dog.7446.jpg"
        string_val: "/notebooks/data/train/dog.8304.jpg"
        string_val: "/notebooks/data/train/cat.364.jpg"
        string_val: "/notebooks/data/train/dog.7669.jpg"
        string_val: "/notebooks/data/train/dog.1970.jpg"
        string_val: "/notebooks/data/train/cat.225.jpg"
        string_val: "/notebooks/data/train/cat.9436.jpg"
        string_val: "/notebooks/data/train/cat.12079.jpg"
        string_val: "/notebooks/data/train/dog.5175.jpg"
        string_val: "/notebooks/data/train/cat.8114.jpg"
        string_val: "/notebooks/data/train/dog.8166.jpg"
        string_val: "/notebooks/data/train/dog.6293.jpg"
        string_val: "/notebooks/data/train/cat.9331.jpg"
        string_val: "/notebooks/data/train/dog.682.jpg"
        string_val: "/notebooks/data/train/dog.11304.jpg"
        string_val: "/notebooks/data/train/dog.1297.jpg"
        string_val: "/notebooks/data/train/dog.2638.jpg"
        string_val: "/notebooks/data/train/cat.4184.jpg"
        string_val: "/notebooks/data/train/cat.59.jpg"
        string_val: "/notebooks/data/train/dog.6553.jpg"
        string_val: "/notebooks/data/train/cat.259.jpg"
        string_val: "/notebooks/data/train/dog.1355.jpg"
        string_val: "/notebooks/data/train/cat.9958.jpg"
        string_val: "/notebooks/data/train/dog.10093.jpg"
        string_val: "/notebooks/data/train/cat.10865.jpg"
        string_val: "/notebooks/data/train/cat.11195.jpg"
        string_val: "/notebooks/data/train/dog.7529.jpg"
        string_val: "/notebooks/data/train/dog.7261.jpg"
        string_val: "/notebooks/data/train/dog.8768.jpg"
        string_val: "/notebooks/data/train/dog.439.jpg"
        string_val: "/notebooks/data/train/cat.1006.jpg"
        string_val: "/notebooks/data/train/dog.11352.jpg"
        string_val: "/notebooks/data/train/dog.11450.jpg"
        string_val: "/notebooks/data/train/dog.2586.jpg"
        string_val: "/notebooks/data/train/cat.3374.jpg"
        string_val: "/notebooks/data/train/dog.11073.jpg"
        string_val: "/notebooks/data/train/cat.10775.jpg"
        string_val: "/notebooks/data/train/dog.542.jpg"
        string_val: "/notebooks/data/train/cat.9326.jpg"
        string_val: "/notebooks/data/train/cat.3586.jpg"
        string_val: "/notebooks/data/train/dog.7588.jpg"
        string_val: "/notebooks/data/train/dog.7864.jpg"
        string_val: "/notebooks/data/train/dog.9318.jpg"
        string_val: "/notebooks/data/train/cat.699.jpg"
        string_val: "/notebooks/data/train/cat.988.jpg"
        string_val: "/notebooks/data/train/cat.9514.jpg"
        string_val: "/notebooks/data/train/cat.1840.jpg"
        string_val: "/notebooks/data/train/cat.10734.jpg"
        string_val: "/notebooks/data/train/cat.1230.jpg"
        string_val: "/notebooks/data/train/cat.601.jpg"
        string_val: "/notebooks/data/train/cat.3347.jpg"
        string_val: "/notebooks/data/train/dog.655.jpg"
        string_val: "/notebooks/data/train/dog.6048.jpg"
        string_val: "/notebooks/data/train/dog.8401.jpg"
        string_val: "/notebooks/data/train/cat.5257.jpg"
        string_val: "/notebooks/data/train/dog.7715.jpg"
        string_val: "/notebooks/data/train/cat.10540.jpg"
        string_val: "/notebooks/data/train/cat.3115.jpg"
        string_val: "/notebooks/data/train/dog.11389.jpg"
        string_val: "/notebooks/data/train/dog.848.jpg"
        string_val: "/notebooks/data/train/cat.3745.jpg"
        string_val: "/notebooks/data/train/dog.11407.jpg"
        string_val: "/notebooks/data/train/dog.8800.jpg"
        string_val: "/notebooks/data/train/cat.5881.jpg"
        string_val: "/notebooks/data/train/cat.4859.jpg"
        string_val: "/notebooks/data/train/cat.7538.jpg"
        string_val: "/notebooks/data/train/cat.2014.jpg"
        string_val: "/notebooks/data/train/cat.1838.jpg"
        string_val: "/notebooks/data/train/dog.7569.jpg"
        string_val: "/notebooks/data/train/dog.10550.jpg"
        string_val: "/notebooks/data/train/dog.2315.jpg"
        string_val: "/notebooks/data/train/cat.99.jpg"
        string_val: "/notebooks/data/train/dog.4340.jpg"
        string_val: "/notebooks/data/train/cat.5094.jpg"
        string_val: "/notebooks/data/train/dog.10881.jpg"
        string_val: "/notebooks/data/train/dog.10254.jpg"
        string_val: "/notebooks/data/train/cat.8261.jpg"
        string_val: "/notebooks/data/train/dog.3382.jpg"
        string_val: "/notebooks/data/train/dog.855.jpg"
        string_val: "/notebooks/data/train/dog.6633.jpg"
        string_val: "/notebooks/data/train/cat.4223.jpg"
        string_val: "/notebooks/data/train/dog.9426.jpg"
        string_val: "/notebooks/data/train/dog.6862.jpg"
        string_val: "/notebooks/data/train/cat.10795.jpg"
        string_val: "/notebooks/data/train/cat.11001.jpg"
        string_val: "/notebooks/data/train/dog.8049.jpg"
        string_val: "/notebooks/data/train/cat.12134.jpg"
        string_val: "/notebooks/data/train/cat.7051.jpg"
        string_val: "/notebooks/data/train/cat.8990.jpg"
        string_val: "/notebooks/data/train/cat.2645.jpg"
        string_val: "/notebooks/data/train/cat.7747.jpg"
        string_val: "/notebooks/data/train/dog.7805.jpg"
        string_val: "/notebooks/data/train/cat.11999.jpg"
        string_val: "/notebooks/data/train/cat.5267.jpg"
        string_val: "/notebooks/data/train/dog.3752.jpg"
        string_val: "/notebooks/data/train/cat.3058.jpg"
        string_val: "/notebooks/data/train/cat.145.jpg"
        string_val: "/notebooks/data/train/cat.4133.jpg"
        string_val: "/notebooks/data/train/dog.4015.jpg"
        string_val: "/notebooks/data/train/dog.4824.jpg"
        string_val: "/notebooks/data/train/cat.5990.jpg"
        string_val: "/notebooks/data/train/dog.6256.jpg"
        string_val: "/notebooks/data/train/cat.6969.jpg"
        string_val: "/notebooks/data/train/cat.8110.jpg"
        string_val: "/notebooks/data/train/cat.2583.jpg"
        string_val: "/notebooks/data/train/cat.9238.jpg"
        string_val: "/notebooks/data/train/dog.1544.jpg"
        string_val: "/notebooks/data/train/dog.11897.jpg"
        string_val: "/notebooks/data/train/dog.2664.jpg"
        string_val: "/notebooks/data/train/dog.9952.jpg"
        string_val: "/notebooks/data/train/dog.10788.jpg"
        string_val: "/notebooks/data/train/cat.8141.jpg"
        string_val: "/notebooks/data/train/dog.11246.jpg"
        string_val: "/notebooks/data/train/dog.5948.jpg"
        string_val: "/notebooks/data/train/dog.3777.jpg"
        string_val: "/notebooks/data/train/dog.12497.jpg"
        string_val: "/notebooks/data/train/dog.2685.jpg"
        string_val: "/notebooks/data/train/cat.1341.jpg"
        string_val: "/notebooks/data/train/cat.1788.jpg"
        string_val: "/notebooks/data/train/cat.12472.jpg"
        string_val: "/notebooks/data/train/dog.3172.jpg"
        string_val: "/notebooks/data/train/dog.11740.jpg"
        string_val: "/notebooks/data/train/dog.12019.jpg"
        string_val: "/notebooks/data/train/cat.1214.jpg"
        string_val: "/notebooks/data/train/dog.4755.jpg"
        string_val: "/notebooks/data/train/dog.10310.jpg"
        string_val: "/notebooks/data/train/cat.10767.jpg"
        string_val: "/notebooks/data/train/dog.10799.jpg"
        string_val: "/notebooks/data/train/cat.11269.jpg"
        string_val: "/notebooks/data/train/cat.10068.jpg"
        string_val: "/notebooks/data/train/cat.6341.jpg"
        string_val: "/notebooks/data/train/dog.482.jpg"
        string_val: "/notebooks/data/train/dog.2197.jpg"
        string_val: "/notebooks/data/train/cat.10832.jpg"
        string_val: "/notebooks/data/train/cat.10825.jpg"
        string_val: "/notebooks/data/train/dog.6830.jpg"
        string_val: "/notebooks/data/train/cat.5725.jpg"
        string_val: "/notebooks/data/train/dog.4047.jpg"
        string_val: "/notebooks/data/train/cat.11378.jpg"
        string_val: "/notebooks/data/train/dog.10083.jpg"
        string_val: "/notebooks/data/train/cat.10730.jpg"
        string_val: "/notebooks/data/train/cat.3187.jpg"
        string_val: "/notebooks/data/train/dog.1349.jpg"
        string_val: "/notebooks/data/train/cat.7735.jpg"
        string_val: "/notebooks/data/train/dog.10384.jpg"
        string_val: "/notebooks/data/train/dog.6683.jpg"
        string_val: "/notebooks/data/train/cat.1647.jpg"
        string_val: "/notebooks/data/train/cat.5015.jpg"
        string_val: "/notebooks/data/train/dog.7582.jpg"
        string_val: "/notebooks/data/train/dog.9232.jpg"
        string_val: "/notebooks/data/train/cat.3679.jpg"
        string_val: "/notebooks/data/train/cat.5457.jpg"
        string_val: "/notebooks/data/train/dog.11112.jpg"
        string_val: "/notebooks/data/train/cat.12382.jpg"
        string_val: "/notebooks/data/train/cat.4051.jpg"
        string_val: "/notebooks/data/train/cat.11840.jpg"
        string_val: "/notebooks/data/train/dog.11884.jpg"
        string_val: "/notebooks/data/train/dog.10985.jpg"
        string_val: "/notebooks/data/train/cat.9901.jpg"
        string_val: "/notebooks/data/train/cat.12331.jpg"
        string_val: "/notebooks/data/train/cat.2788.jpg"
        string_val: "/notebooks/data/train/dog.8986.jpg"
        string_val: "/notebooks/data/train/dog.10207.jpg"
        string_val: "/notebooks/data/train/cat.9850.jpg"
        string_val: "/notebooks/data/train/dog.127.jpg"
        string_val: "/notebooks/data/train/cat.4594.jpg"
        string_val: "/notebooks/data/train/cat.1632.jpg"
        string_val: "/notebooks/data/train/cat.5441.jpg"
        string_val: "/notebooks/data/train/cat.10008.jpg"
        string_val: "/notebooks/data/train/cat.9315.jpg"
        string_val: "/notebooks/data/train/cat.6091.jpg"
        string_val: "/notebooks/data/train/cat.2307.jpg"
        string_val: "/notebooks/data/train/cat.2934.jpg"
        string_val: "/notebooks/data/train/dog.8484.jpg"
        string_val: "/notebooks/data/train/cat.523.jpg"
        string_val: "/notebooks/data/train/dog.9116.jpg"
        string_val: "/notebooks/data/train/dog.806.jpg"
        string_val: "/notebooks/data/train/dog.2.jpg"
        string_val: "/notebooks/data/train/dog.9084.jpg"
        string_val: "/notebooks/data/train/dog.5840.jpg"
        string_val: "/notebooks/data/train/dog.2863.jpg"
        string_val: "/notebooks/data/train/dog.2100.jpg"
        string_val: "/notebooks/data/train/cat.9405.jpg"
        string_val: "/notebooks/data/train/cat.368.jpg"
        string_val: "/notebooks/data/train/cat.4680.jpg"
        string_val: "/notebooks/data/train/cat.3770.jpg"
        string_val: "/notebooks/data/train/dog.12250.jpg"
        string_val: "/notebooks/data/train/dog.9245.jpg"
        string_val: "/notebooks/data/train/dog.4072.jpg"
        string_val: "/notebooks/data/train/cat.3780.jpg"
        string_val: "/notebooks/data/train/dog.1989.jpg"
        string_val: "/notebooks/data/train/cat.10642.jpg"
        string_val: "/notebooks/data/train/cat.10303.jpg"
        string_val: "/notebooks/data/train/cat.10063.jpg"
        string_val: "/notebooks/data/train/cat.96.jpg"
        string_val: "/notebooks/data/train/cat.3249.jpg"
        string_val: "/notebooks/data/train/dog.12337.jpg"
        string_val: "/notebooks/data/train/cat.8918.jpg"
        string_val: "/notebooks/data/train/dog.10618.jpg"
        string_val: "/notebooks/data/train/dog.419.jpg"
        string_val: "/notebooks/data/train/cat.9707.jpg"
        string_val: "/notebooks/data/train/dog.4065.jpg"
        string_val: "/notebooks/data/train/cat.5339.jpg"
        string_val: "/notebooks/data/train/cat.6264.jpg"
        string_val: "/notebooks/data/train/dog.2371.jpg"
        string_val: "/notebooks/data/train/cat.7640.jpg"
        string_val: "/notebooks/data/train/cat.7453.jpg"
        string_val: "/notebooks/data/train/cat.6003.jpg"
        string_val: "/notebooks/data/train/dog.8052.jpg"
        string_val: "/notebooks/data/train/dog.485.jpg"
        string_val: "/notebooks/data/train/dog.1482.jpg"
        string_val: "/notebooks/data/train/cat.3910.jpg"
        string_val: "/notebooks/data/train/dog.2428.jpg"
        string_val: "/notebooks/data/train/dog.11473.jpg"
        string_val: "/notebooks/data/train/cat.7696.jpg"
        string_val: "/notebooks/data/train/cat.1185.jpg"
        string_val: "/notebooks/data/train/dog.5183.jpg"
        string_val: "/notebooks/data/train/cat.5951.jpg"
        string_val: "/notebooks/data/train/cat.8812.jpg"
        string_val: "/notebooks/data/train/dog.3451.jpg"
        string_val: "/notebooks/data/train/dog.4587.jpg"
        string_val: "/notebooks/data/train/cat.12276.jpg"
        string_val: "/notebooks/data/train/cat.8697.jpg"
        string_val: "/notebooks/data/train/dog.12243.jpg"
        string_val: "/notebooks/data/train/cat.8781.jpg"
        string_val: "/notebooks/data/train/dog.1631.jpg"
        string_val: "/notebooks/data/train/cat.9501.jpg"
        string_val: "/notebooks/data/train/dog.537.jpg"
        string_val: "/notebooks/data/train/dog.7422.jpg"
        string_val: "/notebooks/data/train/cat.11725.jpg"
        string_val: "/notebooks/data/train/cat.7877.jpg"
        string_val: "/notebooks/data/train/dog.6136.jpg"
        string_val: "/notebooks/data/train/dog.12318.jpg"
        string_val: "/notebooks/data/train/dog.11152.jpg"
        string_val: "/notebooks/data/train/dog.7202.jpg"
        string_val: "/notebooks/data/train/dog.4928.jpg"
        string_val: "/notebooks/data/train/dog.11779.jpg"
        string_val: "/notebooks/data/train/dog.8529.jpg"
        string_val: "/notebooks/data/train/cat.8542.jpg"
        string_val: "/notebooks/data/train/cat.10257.jpg"
        string_val: "/notebooks/data/train/cat.3658.jpg"
        string_val: "/notebooks/data/train/dog.3050.jpg"
        string_val: "/notebooks/data/train/dog.5409.jpg"
        string_val: "/notebooks/data/train/dog.2582.jpg"
        string_val: "/notebooks/data/train/cat.12426.jpg"
        string_val: "/notebooks/data/train/dog.4464.jpg"
        string_val: "/notebooks/data/train/cat.2867.jpg"
        string_val: "/notebooks/data/train/cat.1194.jpg"
        string_val: "/notebooks/data/train/cat.11891.jpg"
        string_val: "/notebooks/data/train/dog.5504.jpg"
        string_val: "/notebooks/data/train/dog.11718.jpg"
        string_val: "/notebooks/data/train/dog.7792.jpg"
        string_val: "/notebooks/data/train/cat.5133.jpg"
        string_val: "/notebooks/data/train/dog.8098.jpg"
        string_val: "/notebooks/data/train/dog.33.jpg"
        string_val: "/notebooks/data/train/dog.246.jpg"
        string_val: "/notebooks/data/train/cat.5924.jpg"
        string_val: "/notebooks/data/train/cat.11051.jpg"
        string_val: "/notebooks/data/train/dog.9376.jpg"
        string_val: "/notebooks/data/train/cat.12206.jpg"
        string_val: "/notebooks/data/train/cat.4959.jpg"
        string_val: "/notebooks/data/train/cat.1021.jpg"
        string_val: "/notebooks/data/train/cat.11384.jpg"
        string_val: "/notebooks/data/train/dog.9739.jpg"
        string_val: "/notebooks/data/train/cat.1534.jpg"
        string_val: "/notebooks/data/train/cat.7188.jpg"
        string_val: "/notebooks/data/train/cat.11910.jpg"
        string_val: "/notebooks/data/train/cat.1835.jpg"
        string_val: "/notebooks/data/train/cat.6506.jpg"
        string_val: "/notebooks/data/train/cat.4191.jpg"
        string_val: "/notebooks/data/train/dog.1044.jpg"
        string_val: "/notebooks/data/train/dog.7274.jpg"
        string_val: "/notebooks/data/train/cat.1286.jpg"
        string_val: "/notebooks/data/train/cat.435.jpg"
        string_val: "/notebooks/data/train/dog.1639.jpg"
        string_val: "/notebooks/data/train/dog.3157.jpg"
        string_val: "/notebooks/data/train/dog.2317.jpg"
        string_val: "/notebooks/data/train/cat.10189.jpg"
        string_val: "/notebooks/data/train/cat.6955.jpg"
        string_val: "/notebooks/data/train/cat.8392.jpg"
        string_val: "/notebooks/data/train/dog.8778.jpg"
        string_val: "/notebooks/data/train/dog.2209.jpg"
        string_val: "/notebooks/data/train/cat.2749.jpg"
        string_val: "/notebooks/data/train/cat.9213.jpg"
        string_val: "/notebooks/data/train/cat.10456.jpg"
        string_val: "/notebooks/data/train/dog.5415.jpg"
        string_val: "/notebooks/data/train/cat.9909.jpg"
        string_val: "/notebooks/data/train/cat.9498.jpg"
        string_val: "/notebooks/data/train/dog.3874.jpg"
        string_val: "/notebooks/data/train/dog.7018.jpg"
        string_val: "/notebooks/data/train/cat.10312.jpg"
        string_val: "/notebooks/data/train/dog.3586.jpg"
        string_val: "/notebooks/data/train/cat.8197.jpg"
        string_val: "/notebooks/data/train/dog.9433.jpg"
        string_val: "/notebooks/data/train/dog.7093.jpg"
        string_val: "/notebooks/data/train/dog.1572.jpg"
        string_val: "/notebooks/data/train/dog.10771.jpg"
        string_val: "/notebooks/data/train/dog.1955.jpg"
        string_val: "/notebooks/data/train/dog.4936.jpg"
        string_val: "/notebooks/data/train/dog.141.jpg"
        string_val: "/notebooks/data/train/dog.668.jpg"
        string_val: "/notebooks/data/train/dog.2286.jpg"
        string_val: "/notebooks/data/train/dog.10488.jpg"
        string_val: "/notebooks/data/train/cat.4816.jpg"
        string_val: "/notebooks/data/train/dog.12026.jpg"
        string_val: "/notebooks/data/train/dog.11098.jpg"
        string_val: "/notebooks/data/train/dog.1067.jpg"
        string_val: "/notebooks/data/train/dog.2224.jpg"
        string_val: "/notebooks/data/train/dog.2234.jpg"
        string_val: "/notebooks/data/train/dog.11088.jpg"
        string_val: "/notebooks/data/train/dog.10636.jpg"
        string_val: "/notebooks/data/train/dog.12161.jpg"
        string_val: "/notebooks/data/train/dog.10808.jpg"
        string_val: "/notebooks/data/train/dog.3723.jpg"
        string_val: "/notebooks/data/train/cat.1437.jpg"
        string_val: "/notebooks/data/train/dog.8634.jpg"
        string_val: "/notebooks/data/train/cat.9307.jpg"
        string_val: "/notebooks/data/train/dog.5473.jpg"
        string_val: "/notebooks/data/train/cat.8266.jpg"
        string_val: "/notebooks/data/train/cat.8591.jpg"
        string_val: "/notebooks/data/train/dog.10182.jpg"
        string_val: "/notebooks/data/train/cat.11977.jpg"
        string_val: "/notebooks/data/train/cat.9635.jpg"
        string_val: "/notebooks/data/train/dog.9914.jpg"
        string_val: "/notebooks/data/train/cat.7789.jpg"
        string_val: "/notebooks/data/train/dog.7394.jpg"
        string_val: "/notebooks/data/train/cat.2956.jpg"
        string_val: "/notebooks/data/train/dog.9450.jpg"
        string_val: "/notebooks/data/train/dog.6002.jpg"
        string_val: "/notebooks/data/train/dog.1908.jpg"
        string_val: "/notebooks/data/train/cat.10635.jpg"
        string_val: "/notebooks/data/train/cat.975.jpg"
        string_val: "/notebooks/data/train/cat.1674.jpg"
        string_val: "/notebooks/data/train/dog.4188.jpg"
        string_val: "/notebooks/data/train/cat.10439.jpg"
        string_val: "/notebooks/data/train/dog.5505.jpg"
        string_val: "/notebooks/data/train/dog.8193.jpg"
        string_val: "/notebooks/data/train/dog.1262.jpg"
        string_val: "/notebooks/data/train/cat.304.jpg"
        string_val: "/notebooks/data/train/cat.154.jpg"
        string_val: "/notebooks/data/train/cat.7359.jpg"
        string_val: "/notebooks/data/train/cat.9717.jpg"
        string_val: "/notebooks/data/train/cat.2881.jpg"
        string_val: "/notebooks/data/train/dog.7320.jpg"
        string_val: "/notebooks/data/train/cat.8641.jpg"
        string_val: "/notebooks/data/train/cat.7034.jpg"
        string_val: "/notebooks/data/train/dog.1939.jpg"
        string_val: "/notebooks/data/train/dog.12419.jpg"
        string_val: "/notebooks/data/train/cat.6749.jpg"
        string_val: "/notebooks/data/train/cat.11903.jpg"
        string_val: "/notebooks/data/train/dog.598.jpg"
        string_val: "/notebooks/data/train/cat.11524.jpg"
        string_val: "/notebooks/data/train/dog.9563.jpg"
        string_val: "/notebooks/data/train/dog.2085.jpg"
        string_val: "/notebooks/data/train/cat.5671.jpg"
        string_val: "/notebooks/data/train/cat.305.jpg"
        string_val: "/notebooks/data/train/dog.5588.jpg"
        string_val: "/notebooks/data/train/dog.4617.jpg"
        string_val: "/notebooks/data/train/cat.7656.jpg"
        string_val: "/notebooks/data/train/dog.4032.jpg"
        string_val: "/notebooks/data/train/cat.6733.jpg"
        string_val: "/notebooks/data/train/dog.1570.jpg"
        string_val: "/notebooks/data/train/cat.6902.jpg"
        string_val: "/notebooks/data/train/dog.9644.jpg"
        string_val: "/notebooks/data/train/dog.7110.jpg"
        string_val: "/notebooks/data/train/dog.12152.jpg"
        string_val: "/notebooks/data/train/dog.4836.jpg"
        string_val: "/notebooks/data/train/cat.11724.jpg"
        string_val: "/notebooks/data/train/cat.2906.jpg"
        string_val: "/notebooks/data/train/cat.555.jpg"
        string_val: "/notebooks/data/train/dog.8959.jpg"
        string_val: "/notebooks/data/train/dog.12063.jpg"
        string_val: "/notebooks/data/train/dog.7121.jpg"
        string_val: "/notebooks/data/train/dog.3799.jpg"
        string_val: "/notebooks/data/train/dog.8490.jpg"
        string_val: "/notebooks/data/train/cat.5789.jpg"
        string_val: "/notebooks/data/train/dog.6733.jpg"
        string_val: "/notebooks/data/train/cat.7368.jpg"
        string_val: "/notebooks/data/train/cat.1406.jpg"
        string_val: "/notebooks/data/train/dog.8402.jpg"
        string_val: "/notebooks/data/train/cat.10403.jpg"
        string_val: "/notebooks/data/train/cat.102.jpg"
        string_val: "/notebooks/data/train/dog.8887.jpg"
        string_val: "/notebooks/data/train/dog.4505.jpg"
        string_val: "/notebooks/data/train/cat.2179.jpg"
        string_val: "/notebooks/data/train/dog.10642.jpg"
        string_val: "/notebooks/data/train/cat.8476.jpg"
        string_val: "/notebooks/data/train/cat.1662.jpg"
        string_val: "/notebooks/data/train/dog.11150.jpg"
        string_val: "/notebooks/data/train/cat.6108.jpg"
        string_val: "/notebooks/data/train/cat.1262.jpg"
        string_val: "/notebooks/data/train/cat.7123.jpg"
        string_val: "/notebooks/data/train/cat.2484.jpg"
        string_val: "/notebooks/data/train/dog.2092.jpg"
        string_val: "/notebooks/data/train/cat.9640.jpg"
        string_val: "/notebooks/data/train/cat.11276.jpg"
        string_val: "/notebooks/data/train/cat.1035.jpg"
        string_val: "/notebooks/data/train/dog.933.jpg"
        string_val: "/notebooks/data/train/dog.2544.jpg"
        string_val: "/notebooks/data/train/dog.100.jpg"
        string_val: "/notebooks/data/train/cat.5522.jpg"
        string_val: "/notebooks/data/train/dog.2912.jpg"
        string_val: "/notebooks/data/train/dog.4012.jpg"
        string_val: "/notebooks/data/train/cat.10306.jpg"
        string_val: "/notebooks/data/train/cat.3232.jpg"
        string_val: "/notebooks/data/train/cat.1577.jpg"
        string_val: "/notebooks/data/train/dog.8756.jpg"
        string_val: "/notebooks/data/train/cat.10347.jpg"
        string_val: "/notebooks/data/train/dog.9859.jpg"
        string_val: "/notebooks/data/train/cat.6100.jpg"
        string_val: "/notebooks/data/train/dog.7551.jpg"
        string_val: "/notebooks/data/train/dog.12133.jpg"
        string_val: "/notebooks/data/train/dog.12155.jpg"
        string_val: "/notebooks/data/train/cat.4600.jpg"
        string_val: "/notebooks/data/train/cat.12188.jpg"
        string_val: "/notebooks/data/train/cat.7987.jpg"
        string_val: "/notebooks/data/train/cat.7415.jpg"
        string_val: "/notebooks/data/train/dog.4028.jpg"
        string_val: "/notebooks/data/train/dog.12333.jpg"
        string_val: "/notebooks/data/train/dog.11567.jpg"
        string_val: "/notebooks/data/train/cat.2259.jpg"
        string_val: "/notebooks/data/train/dog.1075.jpg"
        string_val: "/notebooks/data/train/dog.11010.jpg"
        string_val: "/notebooks/data/train/cat.2086.jpg"
        string_val: "/notebooks/data/train/cat.6373.jpg"
        string_val: "/notebooks/data/train/dog.2433.jpg"
        string_val: "/notebooks/data/train/cat.8293.jpg"
        string_val: "/notebooks/data/train/cat.7438.jpg"
        string_val: "/notebooks/data/train/dog.2709.jpg"
        string_val: "/notebooks/data/train/cat.7218.jpg"
        string_val: "/notebooks/data/train/cat.7458.jpg"
        string_val: "/notebooks/data/train/cat.9114.jpg"
        string_val: "/notebooks/data/train/cat.11773.jpg"
        string_val: "/notebooks/data/train/dog.10079.jpg"
        string_val: "/notebooks/data/train/cat.2223.jpg"
        string_val: "/notebooks/data/train/cat.8210.jpg"
        string_val: "/notebooks/data/train/cat.4974.jpg"
        string_val: "/notebooks/data/train/dog.5720.jpg"
        string_val: "/notebooks/data/train/cat.6057.jpg"
        string_val: "/notebooks/data/train/dog.10111.jpg"
        string_val: "/notebooks/data/train/dog.2687.jpg"
…
        s: "loc:@vgg_19/conv5/conv5_4/biases"
      }
    }
  }
  attr {
    key: "_output_shapes"
    value {
      list {
        shape {
          dim {
            size: 512
          }
        }
      }
    }
  }
  attr {
    key: "use_locking"
    value {
      b: true
    }
  }
  attr {
    key: "validate_shape"
    value {
      b: true
    }
  }
}
node {
  name: "save/RestoreV2_94/tensor_names"
  op: "Const"
  attr {
    key: "_output_shapes"
    value {
      list {
        shape {
          dim {
            size: 1
          }
        }
      }
    }
  }
  attr {
    key: "dtype"
    value {
      type: DT_STRING
    }
  }
  attr {
    key: "value"
    value {
      tensor {
        dtype: DT_STRING
        tensor_shape {
          dim {
            size: 1
          }
        }
        string_val: "vgg_19/conv5/conv5_4/biases/Adam"
      }
    }
  }
}
node {
  name: "save/RestoreV2_94/shape_and_slices"
  op: "Const"
  attr {
    key: "_output_shapes"
    value {
      list {
        shape {
          dim {
            size: 1
          }
        }
      }
    }
  }
  attr {
    key: "dtype"
    value {
      type: DT_STRING
    }
  }
  attr {
    key: "value"
    value {
      tensor {
        dtype: DT_STRING
        tensor_shape {
          dim {
            size: 1
          }
        }
        string_val: ""
      }
    }
  }
}
node {
  name: "save/RestoreV2_94"
  op: "RestoreV2"
  input: "save/Const"
  input: "save/RestoreV2_94/tensor_names"
  input: "save/RestoreV2_94/shape_and_slices"
  attr {
    key: "_output_shapes"
    value {
      list {
        shape {
          unknown_rank: true
        }
      }
    }
  }
  attr {
    key: "dtypes"
    value {
      list {
        type: DT_FLOAT
      }
    }
  }
}
node {
  name: "save/Assign_94"
  op: "Assign"
  input: "vgg_19/conv5/conv5_4/biases/Adam"
  input: "save/RestoreV2_94"
  attr {
    key: "T"
    value {
      type: DT_FLOAT
    }
  }
  attr {
    key: "_class"
    value {
      list {
        s: "loc:@vgg_19/conv5/conv5_4/biases"
      }
    }
  }
  attr {
    key: "_output_shapes"
    value {
      list {
        shape {
          dim {
            size: 512
          }
        }
      }
    }
  }
  attr {
    key: "use_locking"
    value {
      b: true
    }
  }
  attr {
    key: "validate_shape"
    value {
      b: true
    }
  }
}
node {
  name: "save/RestoreV2_95/tensor_names"
  op: "Const"
  attr {
    key: "_output_shapes"
    value {
      list {
        shape {
          dim {
            size: 1
          }
        }
      }
    }
  }
  attr {
    key: "dtype"
    value {
      type: DT_STRING
    }
  }
  attr {
    key: "value"
    value {
      tensor {
        dtype: DT_STRING
        tensor_shape {
          dim {
            size: 1
          }
        }
        string_val: "vgg_19/conv5/conv5_4/biases/Adam_1"
      }
    }
  }
}
node {
  name: "save/RestoreV2_95/shape_and_slices"
  op: "Const"
  attr {
    key: "_output_shapes"
    value {
      list {
        shape {
          dim {
            size: 1
          }
        }
      }
    }
  }
  attr {
    key: "dtype"
    value {
      type: DT_STRING
    }
  }
  attr {
    key: "value"
    value {
      tensor {
        dtype: DT_STRING
        tensor_shape {
          dim {
            size: 1
          }
        }
        string_val: ""
      }
    }
  }
}
node {
  name: "save/RestoreV2_95"
  op: "RestoreV2"
  input: "save/Const"
  input: "save/RestoreV2_95/tensor_names"
  input: "save/RestoreV2_95/shape_and_slices"
  attr {
    key: "_output_shapes"
    value {
      list {
        shape {
          unknown_rank: true
        }
      }
    }
  }
  attr {
    key: "dtypes"
    value {
      list {
        type: DT_FLOAT
      }
    }
  }
}
node {
  name: "save/Assign_95"
  op: "Assign"
  input: "vgg_19/conv5/conv5_4/biases/Adam_1"
  input: "save/RestoreV2_95"
  attr {
    key: "T"
    value {
      type: DT_FLOAT
    }
  }
  attr {
    key: "_class"
    value {
      list {
        s: "loc:@vgg_19/conv5/conv5_4/biases"
      }
    }
  }
  attr {
    key: "_output_shapes"
    value {
      list {
        shape {
          dim {
            size: 512
          }
        }
      }
    }
  }
  attr {
    key: "use_locking"
    value {
      b: true
    }
  }
  attr {
    key: "validate_shape"
    value {
      b: true
    }
  }
}
node {
  name: "save/RestoreV2_96/tensor_names"
  op: "Const"
  attr {
    key: "_output_shapes"
    value {
      list {
        shape {
          dim {
            size: 1
          }
        }
      }
    }
  }
  attr {
    key: "dtype"
    value {
      type: DT_STRING
    }
  }
  attr {
    key: "value"
    value {
      tensor {
        dtype: DT_STRING
        tensor_shape {
          dim {
            size: 1
          }
        }
        string_val: "vgg_19/conv5/conv5_4/weights"
      }
    }
  }
}
node {
  name: "save/RestoreV2_96/shape_and_slices"
  op: "Const"
  attr {
    key: "_output_shapes"
    value {
      list {
        shape {
          dim {
            size: 1
          }
        }
      }
    }
  }
  attr {
    key: "dtype"
    value {
      type: DT_STRING
    }
  }
  attr {
    key: "value"
    value {
      tensor {
        dtype: DT_STRING
        tensor_shape {
          dim {
            size: 1
          }
        }
        string_val: ""
      }
    }
  }
}
node {
  name: "save/RestoreV2_96"
  op: "RestoreV2"
  input: "save/Const"
  input: "save/RestoreV2_96/tensor_names"
  input: "save/RestoreV2_96/shape_and_slices"
  attr {
    key: "_output_shapes"
    value {
      list {
        shape {
          unknown_rank: true
        }
      }
    }
  }
  attr {
    key: "dtypes"
    value {
      list {
        type: DT_FLOAT
      }
    }
  }
}
node {
  name: "save/Assign_96"
  op: "Assign"
  input: "vgg_19/conv5/conv5_4/weights"
  input: "save/RestoreV2_96"
  attr {
    key: "T"
    value {
      type: DT_FLOAT
    }
  }
  attr {
    key: "_class"
    value {
      list {
        s: "loc:@vgg_19/conv5/conv5_4/weights"
      }
    }
  }
  attr {
    key: "_output_shapes"
    value {
      list {
        shape {
          dim {
            size: 3
          }
          dim {
            size: 3
          }
          dim {
            size: 512
          }
          dim {
            size: 512
          }
        }
      }
    }
  }
  attr {
    key: "use_locking"
    value {
      b: true
    }
  }
  attr {
    key: "validate_shape"
    value {
      b: true
    }
  }
}
node {
  name: "save/RestoreV2_97/tensor_names"
  op: "Const"
  attr {
    key: "_output_shapes"
    value {
      list {
        shape {
          dim {
            size: 1
          }
        }
      }
    }
  }
  attr {
    key: "dtype"
    value {
      type: DT_STRING
    }
  }
  attr {
    key: "value"
    value {
      tensor {
        dtype: DT_STRING
        tensor_shape {
          dim {
            size: 1
          }
        }
        string_val: "vgg_19/conv5/conv5_4/weights/Adam"
      }
    }
  }
}
node {
  name: "save/RestoreV2_97/shape_and_slices"
  op: "Const"
  attr {
    key: "_output_shapes"
    value {
      list {
        shape {
          dim {
            size: 1
          }
        }
      }
    }
  }
  attr {
    key: "dtype"
    value {
      type: DT_STRING
    }
  }
  attr {
    key: "value"
    value {
      tensor {
        dtype: DT_STRING
        tensor_shape {
          dim {
            size: 1
          }
        }
        string_val: ""
      }
    }
  }
}
node {
  name: "save/RestoreV2_97"
  op: "RestoreV2"
  input: "save/Const"
  input: "save/RestoreV2_97/tensor_names"
  input: "save/RestoreV2_97/shape_and_slices"
  attr {
    key: "_output_shapes"
    value {
      list {
        shape {
          unknown_rank: true
        }
      }
    }
  }
  attr {
    key: "dtypes"
    value {
      list {
        type: DT_FLOAT
      }
    }
  }
}
node {
  name: "save/Assign_97"
  op: "Assign"
  input: "vgg_19/conv5/conv5_4/weights/Adam"
  input: "save/RestoreV2_97"
  attr {
    key: "T"
    value {
      type: DT_FLOAT
    }
  }
  attr {
    key: "_class"
    value {
      list {
        s: "loc:@vgg_19/conv5/conv5_4/weights"
      }
    }
  }
  attr {
    key: "_output_shapes"
    value {
      list {
        shape {
          dim {
            size: 3
          }
          dim {
            size: 3
          }
          dim {
            size: 512
          }
          dim {
            size: 512
          }
        }
      }
    }
  }
  attr {
    key: "use_locking"
    value {
      b: true
    }
  }
  attr {
    key: "validate_shape"
    value {
      b: true
    }
  }
}
node {
  name: "save/RestoreV2_98/tensor_names"
  op: "Const"
  attr {
    key: "_output_shapes"
    value {
      list {
        shape {
          dim {
            size: 1
          }
        }
      }
    }
  }
  attr {
    key: "dtype"
    value {
      type: DT_STRING
    }
  }
  attr {
    key: "value"
    value {
      tensor {
        dtype: DT_STRING
        tensor_shape {
          dim {
            size: 1
          }
        }
        string_val: "vgg_19/conv5/conv5_4/weights/Adam_1"
      }
    }
  }
}
node {
  name: "save/RestoreV2_98/shape_and_slices"
  op: "Const"
  attr {
    key: "_output_shapes"
    value {
      list {
        shape {
          dim {
            size: 1
          }
        }
      }
    }
  }
  attr {
    key: "dtype"
    value {
      type: DT_STRING
    }
  }
  attr {
    key: "value"
    value {
      tensor {
        dtype: DT_STRING
        tensor_shape {
          dim {
            size: 1
          }
        }
        string_val: ""
      }
    }
  }
}
node {
  name: "save/RestoreV2_98"
  op: "RestoreV2"
  input: "save/Const"
  input: "save/RestoreV2_98/tensor_names"
  input: "save/RestoreV2_98/shape_and_slices"
  attr {
    key: "_output_shapes"
    value {
      list {
        shape {
          unknown_rank: true
        }
      }
    }
  }
  attr {
    key: "dtypes"
    value {
      list {
        type: DT_FLOAT
      }
    }
  }
}
node {
  name: "save/Assign_98"
  op: "Assign"
  input: "vgg_19/conv5/conv5_4/weights/Adam_1"
  input: "save/RestoreV2_98"
  attr {
    key: "T"
    value {
      type: DT_FLOAT
    }
  }
  attr {
    key: "_class"
    value {
      list {
        s: "loc:@vgg_19/conv5/conv5_4/weights"
      }
    }
  }
  attr {
    key: "_output_shapes"
    value {
      list {
        shape {
          dim {
            size: 3
          }
          dim {
            size: 3
          }
          dim {
            size: 512
          }
          dim {
            size: 512
          }
        }
      }
    }
  }
  attr {
    key: "use_locking"
    value {
      b: true
    }
  }
  attr {
    key: "validate_shape"
    value {
      b: true
    }
  }
}
node {
  name: "save/RestoreV2_99/tensor_names"
  op: "Const"
  attr {
    key: "_output_shapes"
    value {
      list {
        shape {
          dim {
            size: 1
          }
        }
      }
    }
  }
  attr {
    key: "dtype"
    value {
      type: DT_STRING
    }
  }
  attr {
    key: "value"
    value {
      tensor {
        dtype: DT_STRING
        tensor_shape {
          dim {
            size: 1
          }
        }
        string_val: "vgg_19/fc6/biases"
      }
    }
  }
}
node {
  name: "save/RestoreV2_99/shape_and_slices"
  op: "Const"
  attr {
    key: "_output_shapes"
    value {
      list {
        shape {
          dim {
            size: 1
          }
        }
      }
    }
  }
  attr {
    key: "dtype"
    value {
      type: DT_STRING
    }
  }
  attr {
    key: "value"
    value {
      tensor {
        dtype: DT_STRING
        tensor_shape {
          dim {
            size: 1
          }
        }
        string_val: ""
      }
    }
  }
}
node {
  name: "save/RestoreV2_99"
  op: "RestoreV2"
  input: "save/Const"
  input: "save/RestoreV2_99/tensor_names"
  input: "save/RestoreV2_99/shape_and_slices"
  attr {
    key: "_output_shapes"
    value {
      list {
        shape {
          unknown_rank: true
        }
      }
    }
  }
  attr {
    key: "dtypes"
    value {
      list {
        type: DT_FLOAT
      }
    }
  }
}
node {
  name: "save/Assign_99"
  op: "Assign"
  input: "vgg_19/fc6/biases"
  input: "save/RestoreV2_99"
  attr {
    key: "T"
    value {
      type: DT_FLOAT
    }
  }
  attr {
    key: "_class"
    value {
      list {
        s: "loc:@vgg_19/fc6/biases"
      }
    }
  }
  attr {
    key: "_output_shapes"
    value {
      list {
        shape {
          dim {
            size: 4096
          }
        }
      }
    }
  }
  attr {
    key: "use_locking"
    value {
      b: true
    }
  }
  attr {
    key: "validate_shape"
    value {
      b: true
    }
  }
}
node {
  name: "save/RestoreV2_100/tensor_names"
  op: "Const"
  attr {
    key: "_output_shapes"
    value {
      list {
        shape {
          dim {
            size: 1
          }
        }
      }
    }
  }
  attr {
    key: "dtype"
    value {
      type: DT_STRING
    }
  }
  attr {
    key: "value"
    value {
      tensor {
        dtype: DT_STRING
        tensor_shape {
          dim {
            size: 1
          }
        }
        string_val: "vgg_19/fc6/biases/Adam"
      }
    }
  }
}
node {
  name: "save/RestoreV2_100/shape_and_slices"
  op: "Const"
  attr {
    key: "_output_shapes"
    value {
      list {
        shape {
          dim {
            size: 1
          }
        }
      }
    }
  }
  attr {
    key: "dtype"
    value {
      type: DT_STRING
    }
  }
  attr {
    key: "value"
    value {
      tensor {
        dtype: DT_STRING
        tensor_shape {
          dim {
            size: 1
          }
        }
        string_val: ""
      }
    }
  }
}
node {
  name: "save/RestoreV2_100"
  op: "RestoreV2"
  input: "save/Const"
  input: "save/RestoreV2_100/tensor_names"
  input: "save/RestoreV2_100/shape_and_slices"
  attr {
    key: "_output_shapes"
    value {
      list {
        shape {
          unknown_rank: true
        }
      }
    }
  }
  attr {
    key: "dtypes"
    value {
      list {
        type: DT_FLOAT
      }
    }
  }
}
node {
  name: "save/Assign_100"
  op: "Assign"
  input: "vgg_19/fc6/biases/Adam"
  input: "save/RestoreV2_100"
  attr {
    key: "T"
    value {
      type: DT_FLOAT
    }
  }
  attr {
    key: "_class"
    value {
      list {
        s: "loc:@vgg_19/fc6/biases"
      }
    }
  }
  attr {
    key: "_output_shapes"
    value {
      list {
        shape {
          dim {
            size: 4096
          }
        }
      }
    }
  }
  attr {
    key: "use_locking"
    value {
      b: true
    }
  }
  attr {
    key: "validate_shape"
    value {
      b: true
    }
  }
}
node {
  name: "save/RestoreV2_101/tensor_names"
  op: "Const"
  attr {
    key: "_output_shapes"
    value {
      list {
        shape {
          dim {
            size: 1
          }
        }
      }
    }
  }
  attr {
    key: "dtype"
    value {
      type: DT_STRING
    }
  }
  attr {
    key: "value"
    value {
      tensor {
        dtype: DT_STRING
        tensor_shape {
          dim {
            size: 1
          }
        }
        string_val: "vgg_19/fc6/biases/Adam_1"
      }
    }
  }
}
node {
  name: "save/RestoreV2_101/shape_and_slices"
  op: "Const"
  attr {
    key: "_output_shapes"
    value {
      list {
        shape {
          dim {
            size: 1
          }
        }
      }
    }
  }
  attr {
    key: "dtype"
    value {
      type: DT_STRING
    }
  }
  attr {
    key: "value"
    value {
      tensor {
        dtype: DT_STRING
        tensor_shape {
          dim {
            size: 1
          }
        }
        string_val: ""
      }
    }
  }
}
node {
  name: "save/RestoreV2_101"
  op: "RestoreV2"
  input: "save/Const"
  input: "save/RestoreV2_101/tensor_names"
  input: "save/RestoreV2_101/shape_and_slices"
  attr {
    key: "_output_shapes"
    value {
      list {
        shape {
          unknown_rank: true
        }
      }
    }
  }
  attr {
    key: "dtypes"
    value {
      list {
        type: DT_FLOAT
      }
    }
  }
}
node {
  name: "save/Assign_101"
  op: "Assign"
  input: "vgg_19/fc6/biases/Adam_1"
  input: "save/RestoreV2_101"
  attr {
    key: "T"
    value {
      type: DT_FLOAT
    }
  }
  attr {
    key: "_class"
    value {
      list {
        s: "loc:@vgg_19/fc6/biases"
      }
    }
  }
  attr {
    key: "_output_shapes"
    value {
      list {
        shape {
          dim {
            size: 4096
          }
        }
      }
    }
  }
  attr {
    key: "use_locking"
    value {
      b: true
    }
  }
  attr {
    key: "validate_shape"
    value {
      b: true
    }
  }
}
node {
  name: "save/RestoreV2_102/tensor_names"
  op: "Const"
  attr {
    key: "_output_shapes"
    value {
      list {
        shape {
          dim {
            size: 1
          }
        }
      }
    }
  }
  attr {
    key: "dtype"
    value {
      type: DT_STRING
    }
  }
  attr {
    key: "value"
    value {
      tensor {
        dtype: DT_STRING
        tensor_shape {
          dim {
            size: 1
          }
        }
        string_val: "vgg_19/fc6/weights"
      }
    }
  }
}
node {
  name: "save/RestoreV2_102/shape_and_slices"
  op: "Const"
  attr {
    key: "_output_shapes"
    value {
      list {
        shape {
          dim {
            size: 1
          }
        }
      }
    }
  }
  attr {
    key: "dtype"
    value {
      type: DT_STRING
    }
  }
  attr {
    key: "value"
    value {
      tensor {
        dtype: DT_STRING
        tensor_shape {
          dim {
            size: 1
          }
        }
        string_val: ""
      }
    }
  }
}
node {
  name: "save/RestoreV2_102"
  op: "RestoreV2"
  input: "save/Const"
  input: "save/RestoreV2_102/tensor_names"
  input: "save/RestoreV2_102/shape_and_slices"
  attr {
    key: "_output_shapes"
    value {
      list {
        shape {
          unknown_rank: true
        }
      }
    }
  }
  attr {
    key: "dtypes"
    value {
      list {
        type: DT_FLOAT
      }
    }
  }
}
node {
  name: "save/Assign_102"
  op: "Assign"
  input: "vgg_19/fc6/weights"
  input: "save/RestoreV2_102"
  attr {
    key: "T"
    value {
      type: DT_FLOAT
    }
  }
  attr {
    key: "_class"
    value {
      list {
        s: "loc:@vgg_19/fc6/weights"
      }
    }
  }
  attr {
    key: "_output_shapes"
    value {
      list {
        shape {
          dim {
            size: 25088
          }
          dim {
            size: 4096
          }
        }
      }
    }
  }
  attr {
    key: "use_locking"
    value {
      b: true
    }
  }
  attr {
    key: "validate_shape"
    value {
      b: true
    }
  }
}
node {
  name: "save/RestoreV2_103/tensor_names"
  op: "Const"
  attr {
    key: "_output_shapes"
    value {
      list {
        shape {
          dim {
            size: 1
          }
        }
      }
    }
  }
  attr {
    key: "dtype"
    value {
      type: DT_STRING
    }
  }
  attr {
    key: "value"
    value {
      tensor {
        dtype: DT_STRING
        tensor_shape {
          dim {
            size: 1
          }
        }
        string_val: "vgg_19/fc6/weights/Adam"
      }
    }
  }
}
node {
  name: "save/RestoreV2_103/shape_and_slices"
  op: "Const"
  attr {
    key: "_output_shapes"
    value {
      list {
        shape {
          dim {
            size: 1
          }
        }
      }
    }
  }
  attr {
    key: "dtype"
    value {
      type: DT_STRING
    }
  }
  attr {
    key: "value"
    value {
      tensor {
        dtype: DT_STRING
        tensor_shape {
          dim {
            size: 1
          }
        }
        string_val: ""
      }
    }
  }
}
node {
  name: "save/RestoreV2_103"
  op: "RestoreV2"
  input: "save/Const"
  input: "save/RestoreV2_103/tensor_names"
  input: "save/RestoreV2_103/shape_and_slices"
  attr {
    key: "_output_shapes"
    value {
      list {
        shape {
          unknown_rank: true
        }
      }
    }
  }
  attr {
    key: "dtypes"
    value {
      list {
        type: DT_FLOAT
      }
    }
  }
}
node {
  name: "save/Assign_103"
  op: "Assign"
  input: "vgg_19/fc6/weights/Adam"
  input: "save/RestoreV2_103"
  attr {
    key: "T"
    value {
      type: DT_FLOAT
    }
  }
  attr {
    key: "_class"
    value {
      list {
        s: "loc:@vgg_19/fc6/weights"
      }
    }
  }
  attr {
    key: "_output_shapes"
    value {
      list {
        shape {
          dim {
            size: 25088
          }
          dim {
            size: 4096
          }
        }
      }
    }
  }
  attr {
    key: "use_locking"
    value {
      b: true
    }
  }
  attr {
    key: "validate_shape"
    value {
      b: true
    }
  }
}
node {
  name: "save/RestoreV2_104/tensor_names"
  op: "Const"
  attr {
    key: "_output_shapes"
    value {
      list {
        shape {
          dim {
            size: 1
          }
        }
      }
    }
  }
  attr {
    key: "dtype"
    value {
      type: DT_STRING
    }
  }
  attr {
    key: "value"
    value {
      tensor {
        dtype: DT_STRING
        tensor_shape {
          dim {
            size: 1
          }
        }
        string_val: "vgg_19/fc6/weights/Adam_1"
      }
    }
  }
}
node {
  name: "save/RestoreV2_104/shape_and_slices"
  op: "Const"
  attr {
    key: "_output_shapes"
    value {
      list {
        shape {
          dim {
            size: 1
          }
        }
      }
    }
  }
  attr {
    key: "dtype"
    value {
      type: DT_STRING
    }
  }
  attr {
    key: "value"
    value {
      tensor {
        dtype: DT_STRING
        tensor_shape {
          dim {
            size: 1
          }
        }
        string_val: ""
      }
    }
  }
}
node {
  name: "save/RestoreV2_104"
  op: "RestoreV2"
  input: "save/Const"
  input: "save/RestoreV2_104/tensor_names"
  input: "save/RestoreV2_104/shape_and_slices"
  attr {
    key: "_output_shapes"
    value {
      list {
        shape {
          unknown_rank: true
        }
      }
    }
  }
  attr {
    key: "dtypes"
    value {
      list {
        type: DT_FLOAT
      }
    }
  }
}
node {
  name: "save/Assign_104"
  op: "Assign"
  input: "vgg_19/fc6/weights/Adam_1"
  input: "save/RestoreV2_104"
  attr {
    key: "T"
    value {
      type: DT_FLOAT
    }
  }
  attr {
    key: "_class"
    value {
      list {
        s: "loc:@vgg_19/fc6/weights"
      }
    }
  }
  attr {
    key: "_output_shapes"
    value {
      list {
        shape {
          dim {
            size: 25088
          }
          dim {
            size: 4096
          }
        }
      }
    }
  }
  attr {
    key: "use_locking"
    value {
      b: true
    }
  }
  attr {
    key: "validate_shape"
    value {
      b: true
    }
  }
}
node {
  name: "save/RestoreV2_105/tensor_names"
  op: "Const"
  attr {
    key: "_output_shapes"
    value {
      list {
        shape {
          dim {
            size: 1
          }
        }
      }
    }
  }
  attr {
    key: "dtype"
    value {
      type: DT_STRING
    }
  }
  attr {
    key: "value"
    value {
      tensor {
        dtype: DT_STRING
        tensor_shape {
          dim {
            size: 1
          }
        }
        string_val: "vgg_19/fc7/biases"
      }
    }
  }
}
node {
  name: "save/RestoreV2_105/shape_and_slices"
  op: "Const"
  attr {
    key: "_output_shapes"
    value {
      list {
        shape {
          dim {
            size: 1
          }
        }
      }
    }
  }
  attr {
    key: "dtype"
    value {
      type: DT_STRING
    }
  }
  attr {
    key: "value"
    value {
      tensor {
        dtype: DT_STRING
        tensor_shape {
          dim {
            size: 1
          }
        }
        string_val: ""
      }
    }
  }
}
node {
  name: "save/RestoreV2_105"
  op: "RestoreV2"
  input: "save/Const"
  input: "save/RestoreV2_105/tensor_names"
  input: "save/RestoreV2_105/shape_and_slices"
  attr {
    key: "_output_shapes"
    value {
      list {
        shape {
          unknown_rank: true
        }
      }
    }
  }
  attr {
    key: "dtypes"
    value {
      list {
        type: DT_FLOAT
      }
    }
  }
}
node {
  name: "save/Assign_105"
  op: "Assign"
  input: "vgg_19/fc7/biases"
  input: "save/RestoreV2_105"
  attr {
    key: "T"
    value {
      type: DT_FLOAT
    }
  }
  attr {
    key: "_class"
    value {
      list {
        s: "loc:@vgg_19/fc7/biases"
      }
    }
  }
  attr {
    key: "_output_shapes"
    value {
      list {
        shape {
          dim {
            size: 4096
          }
        }
      }
    }
  }
  attr {
    key: "use_locking"
    value {
      b: true
    }
  }
  attr {
    key: "validate_shape"
    value {
      b: true
    }
  }
}
node {
  name: "save/RestoreV2_106/tensor_names"
  op: "Const"
  attr {
    key: "_output_shapes"
    value {
      list {
        shape {
          dim {
            size: 1
          }
        }
      }
    }
  }
  attr {
    key: "dtype"
    value {
      type: DT_STRING
    }
  }
  attr {
    key: "value"
    value {
      tensor {
        dtype: DT_STRING
        tensor_shape {
          dim {
            size: 1
          }
        }
        string_val: "vgg_19/fc7/biases/Adam"
      }
    }
  }
}
node {
  name: "save/RestoreV2_106/shape_and_slices"
  op: "Const"
  attr {
    key: "_output_shapes"
    value {
      list {
        shape {
          dim {
            size: 1
          }
        }
      }
    }
  }
  attr {
    key: "dtype"
    value {
      type: DT_STRING
    }
  }
  attr {
    key: "value"
    value {
      tensor {
        dtype: DT_STRING
        tensor_shape {
          dim {
            size: 1
          }
        }
        string_val: ""
      }
    }
  }
}
node {
  name: "save/RestoreV2_106"
  op: "RestoreV2"
  input: "save/Const"
  input: "save/RestoreV2_106/tensor_names"
  input: "save/RestoreV2_106/shape_and_slices"
  attr {
    key: "_output_shapes"
    value {
      list {
        shape {
          unknown_rank: true
        }
      }
    }
  }
  attr {
    key: "dtypes"
    value {
      list {
        type: DT_FLOAT
      }
    }
  }
}
node {
  name: "save/Assign_106"
  op: "Assign"
  input: "vgg_19/fc7/biases/Adam"
  input: "save/RestoreV2_106"
  attr {
    key: "T"
    value {
      type: DT_FLOAT
    }
  }
  attr {
    key: "_class"
    value {
      list {
        s: "loc:@vgg_19/fc7/biases"
      }
    }
  }
  attr {
    key: "_output_shapes"
    value {
      list {
        shape {
          dim {
            size: 4096
          }
        }
      }
    }
  }
  attr {
    key: "use_locking"
    value {
      b: true
    }
  }
  attr {
    key: "validate_shape"
    value {
      b: true
    }
  }
}
node {
  name: "save/RestoreV2_107/tensor_names"
  op: "Const"
  attr {
    key: "_output_shapes"
    value {
      list {
        shape {
          dim {
            size: 1
          }
        }
      }
    }
  }
  attr {
    key: "dtype"
    value {
      type: DT_STRING
    }
  }
  attr {
    key: "value"
    value {
      tensor {
        dtype: DT_STRING
        tensor_shape {
          dim {
            size: 1
          }
        }
        string_val: "vgg_19/fc7/biases/Adam_1"
      }
    }
  }
}
node {
  name: "save/RestoreV2_107/shape_and_slices"
  op: "Const"
  attr {
    key: "_output_shapes"
    value {
      list {
        shape {
          dim {
            size: 1
          }
        }
      }
    }
  }
  attr {
    key: "dtype"
    value {
      type: DT_STRING
    }
  }
  attr {
    key: "value"
    value {
      tensor {
        dtype: DT_STRING
        tensor_shape {
          dim {
            size: 1
          }
        }
        string_val: ""
      }
    }
  }
}
node {
  name: "save/RestoreV2_107"
  op: "RestoreV2"
  input: "save/Const"
  input: "save/RestoreV2_107/tensor_names"
  input: "save/RestoreV2_107/shape_and_slices"
  attr {
    key: "_output_shapes"
    value {
      list {
        shape {
          unknown_rank: true
        }
      }
    }
  }
  attr {
    key: "dtypes"
    value {
      list {
        type: DT_FLOAT
      }
    }
  }
}
node {
  name: "save/Assign_107"
  op: "Assign"
  input: "vgg_19/fc7/biases/Adam_1"
  input: "save/RestoreV2_107"
  attr {
    key: "T"
    value {
      type: DT_FLOAT
    }
  }
  attr {
    key: "_class"
    value {
      list {
        s: "loc:@vgg_19/fc7/biases"
      }
    }
  }
  attr {
    key: "_output_shapes"
    value {
      list {
        shape {
          dim {
            size: 4096
          }
        }
      }
    }
  }
  attr {
    key: "use_locking"
    value {
      b: true
    }
  }
  attr {
    key: "validate_shape"
    value {
      b: true
    }
  }
}
node {
  name: "save/RestoreV2_108/tensor_names"
  op: "Const"
  attr {
    key: "_output_shapes"
    value {
      list {
        shape {
          dim {
            size: 1
          }
        }
      }
    }
  }
  attr {
    key: "dtype"
    value {
      type: DT_STRING
    }
  }
  attr {
    key: "value"
    value {
      tensor {
        dtype: DT_STRING
        tensor_shape {
          dim {
            size: 1
          }
        }
        string_val: "vgg_19/fc7/weights"
      }
    }
  }
}
node {
  name: "save/RestoreV2_108/shape_and_slices"
  op: "Const"
  attr {
    key: "_output_shapes"
    value {
      list {
        shape {
          dim {
            size: 1
          }
        }
      }
    }
  }
  attr {
    key: "dtype"
    value {
      type: DT_STRING
    }
  }
  attr {
    key: "value"
    value {
      tensor {
        dtype: DT_STRING
        tensor_shape {
          dim {
            size: 1
          }
        }
        string_val: ""
      }
    }
  }
}
node {
  name: "save/RestoreV2_108"
  op: "RestoreV2"
  input: "save/Const"
  input: "save/RestoreV2_108/tensor_names"
  input: "save/RestoreV2_108/shape_and_slices"
  attr {
    key: "_output_shapes"
    value {
      list {
        shape {
          unknown_rank: true
        }
      }
    }
  }
  attr {
    key: "dtypes"
    value {
      list {
        type: DT_FLOAT
      }
    }
  }
}
node {
  name: "save/Assign_108"
  op: "Assign"
  input: "vgg_19/fc7/weights"
  input: "save/RestoreV2_108"
  attr {
    key: "T"
    value {
      type: DT_FLOAT
    }
  }
  attr {
    key: "_class"
    value {
      list {
        s: "loc:@vgg_19/fc7/weights"
      }
    }
  }
  attr {
    key: "_output_shapes"
    value {
      list {
        shape {
          dim {
            size: 4096
          }
          dim {
            size: 4096
          }
        }
      }
    }
  }
  attr {
    key: "use_locking"
    value {
      b: true
    }
  }
  attr {
    key: "validate_shape"
    value {
      b: true
    }
  }
}
node {
  name: "save/RestoreV2_109/tensor_names"
  op: "Const"
  attr {
    key: "_output_shapes"
    value {
      list {
        shape {
          dim {
            size: 1
          }
        }
      }
    }
  }
  attr {
    key: "dtype"
    value {
      type: DT_STRING
    }
  }
  attr {
    key: "value"
    value {
      tensor {
        dtype: DT_STRING
        tensor_shape {
          dim {
            size: 1
          }
        }
        string_val: "vgg_19/fc7/weights/Adam"
      }
    }
  }
}
node {
  name: "save/RestoreV2_109/shape_and_slices"
  op: "Const"
  attr {
    key: "_output_shapes"
    value {
      list {
        shape {
          dim {
            size: 1
          }
        }
      }
    }
  }
  attr {
    key: "dtype"
    value {
      type: DT_STRING
    }
  }
  attr {
    key: "value"
    value {
      tensor {
        dtype: DT_STRING
        tensor_shape {
          dim {
            size: 1
          }
        }
        string_val: ""
      }
    }
  }
}
node {
  name: "save/RestoreV2_109"
  op: "RestoreV2"
  input: "save/Const"
  input: "save/RestoreV2_109/tensor_names"
  input: "save/RestoreV2_109/shape_and_slices"
  attr {
    key: "_output_shapes"
    value {
      list {
        shape {
          unknown_rank: true
        }
      }
    }
  }
  attr {
    key: "dtypes"
    value {
      list {
        type: DT_FLOAT
      }
    }
  }
}
node {
  name: "save/Assign_109"
  op: "Assign"
  input: "vgg_19/fc7/weights/Adam"
  input: "save/RestoreV2_109"
  attr {
    key: "T"
    value {
      type: DT_FLOAT
    }
  }
  attr {
    key: "_class"
    value {
      list {
        s: "loc:@vgg_19/fc7/weights"
      }
    }
  }
  attr {
    key: "_output_shapes"
    value {
      list {
        shape {
          dim {
            size: 4096
          }
          dim {
            size: 4096
          }
        }
      }
    }
  }
  attr {
    key: "use_locking"
    value {
      b: true
    }
  }
  attr {
    key: "validate_shape"
    value {
      b: true
    }
  }
}
node {
  name: "save/RestoreV2_110/tensor_names"
  op: "Const"
  attr {
    key: "_output_shapes"
    value {
      list {
        shape {
          dim {
            size: 1
          }
        }
      }
    }
  }
  attr {
    key: "dtype"
    value {
      type: DT_STRING
    }
  }
  attr {
    key: "value"
    value {
      tensor {
        dtype: DT_STRING
        tensor_shape {
          dim {
            size: 1
          }
        }
        string_val: "vgg_19/fc7/weights/Adam_1"
      }
    }
  }
}
node {
  name: "save/RestoreV2_110/shape_and_slices"
  op: "Const"
  attr {
    key: "_output_shapes"
    value {
      list {
        shape {
          dim {
            size: 1
          }
        }
      }
    }
  }
  attr {
    key: "dtype"
    value {
      type: DT_STRING
    }
  }
  attr {
    key: "value"
    value {
      tensor {
        dtype: DT_STRING
        tensor_shape {
          dim {
            size: 1
          }
        }
        string_val: ""
      }
    }
  }
}
node {
  name: "save/RestoreV2_110"
  op: "RestoreV2"
  input: "save/Const"
  input: "save/RestoreV2_110/tensor_names"
  input: "save/RestoreV2_110/shape_and_slices"
  attr {
    key: "_output_shapes"
    value {
      list {
        shape {
          unknown_rank: true
        }
      }
    }
  }
  attr {
    key: "dtypes"
    value {
      list {
        type: DT_FLOAT
      }
    }
  }
}
node {
  name: "save/Assign_110"
  op: "Assign"
  input: "vgg_19/fc7/weights/Adam_1"
  input: "save/RestoreV2_110"
  attr {
    key: "T"
    value {
      type: DT_FLOAT
    }
  }
  attr {
    key: "_class"
    value {
      list {
        s: "loc:@vgg_19/fc7/weights"
      }
    }
  }
  attr {
    key: "_output_shapes"
    value {
      list {
        shape {
          dim {
            size: 4096
          }
          dim {
            size: 4096
          }
        }
      }
    }
  }
  attr {
    key: "use_locking"
    value {
      b: true
    }
  }
  attr {
    key: "validate_shape"
    value {
      b: true
    }
  }
}
node {
  name: "save/RestoreV2_111/tensor_names"
  op: "Const"
  attr {
    key: "_output_shapes"
    value {
      list {
        shape {
          dim {
            size: 1
          }
        }
      }
    }
  }
  attr {
    key: "dtype"
    value {
      type: DT_STRING
    }
  }
  attr {
    key: "value"
    value {
      tensor {
        dtype: DT_STRING
        tensor_shape {
          dim {
            size: 1
          }
        }
        string_val: "vgg_19/fc8/biases"
      }
    }
  }
}
node {
  name: "save/RestoreV2_111/shape_and_slices"
  op: "Const"
  attr {
    key: "_output_shapes"
    value {
      list {
        shape {
          dim {
            size: 1
          }
        }
      }
    }
  }
  attr {
    key: "dtype"
    value {
      type: DT_STRING
    }
  }
  attr {
    key: "value"
    value {
      tensor {
        dtype: DT_STRING
        tensor_shape {
          dim {
            size: 1
          }
        }
        string_val: ""
      }
    }
  }
}
node {
  name: "save/RestoreV2_111"
  op: "RestoreV2"
  input: "save/Const"
  input: "save/RestoreV2_111/tensor_names"
  input: "save/RestoreV2_111/shape_and_slices"
  attr {
    key: "_output_shapes"
    value {
      list {
        shape {
          unknown_rank: true
        }
      }
    }
  }
  attr {
    key: "dtypes"
    value {
      list {
        type: DT_FLOAT
      }
    }
  }
}
node {
  name: "save/Assign_111"
  op: "Assign"
  input: "vgg_19/fc8/biases"
  input: "save/RestoreV2_111"
  attr {
    key: "T"
    value {
      type: DT_FLOAT
    }
  }
  attr {
    key: "_class"
    value {
      list {
        s: "loc:@vgg_19/fc8/biases"
      }
    }
  }
  attr {
    key: "_output_shapes"
    value {
      list {
        shape {
          dim {
            size: 2
          }
        }
      }
    }
  }
  attr {
    key: "use_locking"
    value {
      b: true
    }
  }
  attr {
    key: "validate_shape"
    value {
      b: true
    }
  }
}
node {
  name: "save/RestoreV2_112/tensor_names"
  op: "Const"
  attr {
    key: "_output_shapes"
    value {
      list {
        shape {
          dim {
            size: 1
          }
        }
      }
    }
  }
  attr {
    key: "dtype"
    value {
      type: DT_STRING
    }
  }
  attr {
    key: "value"
    value {
      tensor {
        dtype: DT_STRING
        tensor_shape {
          dim {
            size: 1
          }
        }
        string_val: "vgg_19/fc8/biases/Adam"
      }
    }
  }
}
node {
  name: "save/RestoreV2_112/shape_and_slices"
  op: "Const"
  attr {
    key: "_output_shapes"
    value {
      list {
        shape {
          dim {
            size: 1
          }
        }
      }
    }
  }
  attr {
    key: "dtype"
    value {
      type: DT_STRING
    }
  }
  attr {
    key: "value"
    value {
      tensor {
        dtype: DT_STRING
        tensor_shape {
          dim {
            size: 1
          }
        }
        string_val: ""
      }
    }
  }
}
node {
  name: "save/RestoreV2_112"
  op: "RestoreV2"
  input: "save/Const"
  input: "save/RestoreV2_112/tensor_names"
  input: "save/RestoreV2_112/shape_and_slices"
  attr {
    key: "_output_shapes"
    value {
      list {
        shape {
          unknown_rank: true
        }
      }
    }
  }
  attr {
    key: "dtypes"
    value {
      list {
        type: DT_FLOAT
      }
    }
  }
}
node {
  name: "save/Assign_112"
  op: "Assign"
  input: "vgg_19/fc8/biases/Adam"
  input: "save/RestoreV2_112"
  attr {
    key: "T"
    value {
      type: DT_FLOAT
    }
  }
  attr {
    key: "_class"
    value {
      list {
        s: "loc:@vgg_19/fc8/biases"
      }
    }
  }
  attr {
    key: "_output_shapes"
    value {
      list {
        shape {
          dim {
            size: 2
          }
        }
      }
    }
  }
  attr {
    key: "use_locking"
    value {
      b: true
    }
  }
  attr {
    key: "validate_shape"
    value {
      b: true
    }
  }
}
node {
  name: "save/RestoreV2_113/tensor_names"
  op: "Const"
  attr {
    key: "_output_shapes"
    value {
      list {
        shape {
          dim {
            size: 1
          }
        }
      }
    }
  }
  attr {
    key: "dtype"
    value {
      type: DT_STRING
    }
  }
  attr {
    key: "value"
    value {
      tensor {
        dtype: DT_STRING
        tensor_shape {
          dim {
            size: 1
          }
        }
        string_val: "vgg_19/fc8/biases/Adam_1"
      }
    }
  }
}
node {
  name: "save/RestoreV2_113/shape_and_slices"
  op: "Const"
  attr {
    key: "_output_shapes"
    value {
      list {
        shape {
          dim {
            size: 1
          }
        }
      }
    }
  }
  attr {
    key: "dtype"
    value {
      type: DT_STRING
    }
  }
  attr {
    key: "value"
    value {
      tensor {
        dtype: DT_STRING
        tensor_shape {
          dim {
            size: 1
          }
        }
        string_val: ""
      }
    }
  }
}
node {
  name: "save/RestoreV2_113"
  op: "RestoreV2"
  input: "save/Const"
  input: "save/RestoreV2_113/tensor_names"
  input: "save/RestoreV2_113/shape_and_slices"
  attr {
    key: "_output_shapes"
    value {
      list {
        shape {
          unknown_rank: true
        }
      }
    }
  }
  attr {
    key: "dtypes"
    value {
      list {
        type: DT_FLOAT
      }
    }
  }
}
node {
  name: "save/Assign_113"
  op: "Assign"
  input: "vgg_19/fc8/biases/Adam_1"
  input: "save/RestoreV2_113"
  attr {
    key: "T"
    value {
      type: DT_FLOAT
    }
  }
  attr {
    key: "_class"
    value {
      list {
        s: "loc:@vgg_19/fc8/biases"
      }
    }
  }
  attr {
    key: "_output_shapes"
    value {
      list {
        shape {
          dim {
            size: 2
          }
        }
      }
    }
  }
  attr {
    key: "use_locking"
    value {
      b: true
    }
  }
  attr {
    key: "validate_shape"
    value {
      b: true
    }
  }
}
node {
  name: "save/RestoreV2_114/tensor_names"
  op: "Const"
  attr {
    key: "_output_shapes"
    value {
      list {
        shape {
          dim {
            size: 1
          }
        }
      }
    }
  }
  attr {
    key: "dtype"
    value {
      type: DT_STRING
    }
  }
  attr {
    key: "value"
    value {
      tensor {
        dtype: DT_STRING
        tensor_shape {
          dim {
            size: 1
          }
        }
        string_val: "vgg_19/fc8/weights"
      }
    }
  }
}
node {
  name: "save/RestoreV2_114/shape_and_slices"
  op: "Const"
  attr {
    key: "_output_shapes"
    value {
      list {
        shape {
          dim {
            size: 1
          }
        }
      }
    }
  }
  attr {
    key: "dtype"
    value {
      type: DT_STRING
    }
  }
  attr {
    key: "value"
    value {
      tensor {
        dtype: DT_STRING
        tensor_shape {
          dim {
            size: 1
          }
        }
        string_val: ""
      }
    }
  }
}
node {
  name: "save/RestoreV2_114"
  op: "RestoreV2"
  input: "save/Const"
  input: "save/RestoreV2_114/tensor_names"
  input: "save/RestoreV2_114/shape_and_slices"
  attr {
    key: "_output_shapes"
    value {
      list {
        shape {
          unknown_rank: true
        }
      }
    }
  }
  attr {
    key: "dtypes"
    value {
      list {
        type: DT_FLOAT
      }
    }
  }
}
node {
  name: "save/Assign_114"
  op: "Assign"
  input: "vgg_19/fc8/weights"
  input: "save/RestoreV2_114"
  attr {
    key: "T"
    value {
      type: DT_FLOAT
    }
  }
  attr {
    key: "_class"
    value {
      list {
        s: "loc:@vgg_19/fc8/weights"
      }
    }
  }
  attr {
    key: "_output_shapes"
    value {
      list {
        shape {
          dim {
            size: 4096
          }
          dim {
            size: 2
          }
        }
      }
    }
  }
  attr {
    key: "use_locking"
    value {
      b: true
    }
  }
  attr {
    key: "validate_shape"
    value {
      b: true
    }
  }
}
node {
  name: "save/RestoreV2_115/tensor_names"
  op: "Const"
  attr {
    key: "_output_shapes"
    value {
      list {
        shape {
          dim {
            size: 1
          }
        }
      }
    }
  }
  attr {
    key: "dtype"
    value {
      type: DT_STRING
    }
  }
  attr {
    key: "value"
    value {
      tensor {
        dtype: DT_STRING
        tensor_shape {
          dim {
            size: 1
          }
        }
        string_val: "vgg_19/fc8/weights/Adam"
      }
    }
  }
}
node {
  name: "save/RestoreV2_115/shape_and_slices"
  op: "Const"
  attr {
    key: "_output_shapes"
    value {
      list {
        shape {
          dim {
            size: 1
          }
        }
      }
    }
  }
  attr {
    key: "dtype"
    value {
      type: DT_STRING
    }
  }
  attr {
    key: "value"
    value {
      tensor {
        dtype: DT_STRING
        tensor_shape {
          dim {
            size: 1
          }
        }
        string_val: ""
      }
    }
  }
}
node {
  name: "save/RestoreV2_115"
  op: "RestoreV2"
  input: "save/Const"
  input: "save/RestoreV2_115/tensor_names"
  input: "save/RestoreV2_115/shape_and_slices"
  attr {
    key: "_output_shapes"
    value {
      list {
        shape {
          unknown_rank: true
        }
      }
    }
  }
  attr {
    key: "dtypes"
    value {
      list {
        type: DT_FLOAT
      }
    }
  }
}
node {
  name: "save/Assign_115"
  op: "Assign"
  input: "vgg_19/fc8/weights/Adam"
  input: "save/RestoreV2_115"
  attr {
    key: "T"
    value {
      type: DT_FLOAT
    }
  }
  attr {
    key: "_class"
    value {
      list {
        s: "loc:@vgg_19/fc8/weights"
      }
    }
  }
  attr {
    key: "_output_shapes"
    value {
      list {
        shape {
          dim {
            size: 4096
          }
          dim {
            size: 2
          }
        }
      }
    }
  }
  attr {
    key: "use_locking"
    value {
      b: true
    }
  }
  attr {
    key: "validate_shape"
    value {
      b: true
    }
  }
}
node {
  name: "save/RestoreV2_116/tensor_names"
  op: "Const"
  attr {
    key: "_output_shapes"
    value {
      list {
        shape {
          dim {
            size: 1
          }
        }
      }
    }
  }
  attr {
    key: "dtype"
    value {
      type: DT_STRING
    }
  }
  attr {
    key: "value"
    value {
      tensor {
        dtype: DT_STRING
        tensor_shape {
          dim {
            size: 1
          }
        }
        string_val: "vgg_19/fc8/weights/Adam_1"
      }
    }
  }
}
node {
  name: "save/RestoreV2_116/shape_and_slices"
  op: "Const"
  attr {
    key: "_output_shapes"
    value {
      list {
        shape {
          dim {
            size: 1
          }
        }
      }
    }
  }
  attr {
    key: "dtype"
    value {
      type: DT_STRING
    }
  }
  attr {
    key: "value"
    value {
      tensor {
        dtype: DT_STRING
        tensor_shape {
          dim {
            size: 1
          }
        }
        string_val: ""
      }
    }
  }
}
node {
  name: "save/RestoreV2_116"
  op: "RestoreV2"
  input: "save/Const"
  input: "save/RestoreV2_116/tensor_names"
  input: "save/RestoreV2_116/shape_and_slices"
  attr {
    key: "_output_shapes"
    value {
      list {
        shape {
          unknown_rank: true
        }
      }
    }
  }
  attr {
    key: "dtypes"
    value {
      list {
        type: DT_FLOAT
      }
    }
  }
}
node {
  name: "save/Assign_116"
  op: "Assign"
  input: "vgg_19/fc8/weights/Adam_1"
  input: "save/RestoreV2_116"
  attr {
    key: "T"
    value {
      type: DT_FLOAT
    }
  }
  attr {
    key: "_class"
    value {
      list {
        s: "loc:@vgg_19/fc8/weights"
      }
    }
  }
  attr {
    key: "_output_shapes"
    value {
      list {
        shape {
          dim {
            size: 4096
          }
          dim {
            size: 2
          }
        }
      }
    }
  }
  attr {
    key: "use_locking"
    value {
      b: true
    }
  }
  attr {
    key: "validate_shape"
    value {
      b: true
    }
  }
}
node {
  name: "save/restore_shard"
  op: "NoOp"
  input: "^save/Assign"
  input: "^save/Assign_1"
  input: "^save/Assign_2"
  input: "^save/Assign_3"
  input: "^save/Assign_4"
  input: "^save/Assign_5"
  input: "^save/Assign_6"
  input: "^save/Assign_7"
  input: "^save/Assign_8"
  input: "^save/Assign_9"
  input: "^save/Assign_10"
  input: "^save/Assign_11"
  input: "^save/Assign_12"
  input: "^save/Assign_13"
  input: "^save/Assign_14"
  input: "^save/Assign_15"
  input: "^save/Assign_16"
  input: "^save/Assign_17"
  input: "^save/Assign_18"
  input: "^save/Assign_19"
  input: "^save/Assign_20"
  input: "^save/Assign_21"
  input: "^save/Assign_22"
  input: "^save/Assign_23"
  input: "^save/Assign_24"
  input: "^save/Assign_25"
  input: "^save/Assign_26"
  input: "^save/Assign_27"
  input: "^save/Assign_28"
  input: "^save/Assign_29"
  input: "^save/Assign_30"
  input: "^save/Assign_31"
  input: "^save/Assign_32"
  input: "^save/Assign_33"
  input: "^save/Assign_34"
  input: "^save/Assign_35"
  input: "^save/Assign_36"
  input: "^save/Assign_37"
  input: "^save/Assign_38"
  input: "^save/Assign_39"
  input: "^save/Assign_40"
  input: "^save/Assign_41"
  input: "^save/Assign_42"
  input: "^save/Assign_43"
  input: "^save/Assign_44"
  input: "^save/Assign_45"
  input: "^save/Assign_46"
  input: "^save/Assign_47"
  input: "^save/Assign_48"
  input: "^save/Assign_49"
  input: "^save/Assign_50"
  input: "^save/Assign_51"
  input: "^save/Assign_52"
  input: "^save/Assign_53"
  input: "^save/Assign_54"
  input: "^save/Assign_55"
  input: "^save/Assign_56"
  input: "^save/Assign_57"
  input: "^save/Assign_58"
  input: "^save/Assign_59"
  input: "^save/Assign_60"
  input: "^save/Assign_61"
  input: "^save/Assign_62"
  input: "^save/Assign_63"
  input: "^save/Assign_64"
  input: "^save/Assign_65"
  input: "^save/Assign_66"
  input: "^save/Assign_67"
  input: "^save/Assign_68"
  input: "^save/Assign_69"
  input: "^save/Assign_70"
  input: "^save/Assign_71"
  input: "^save/Assign_72"
  input: "^save/Assign_73"
  input: "^save/Assign_74"
  input: "^save/Assign_75"
  input: "^save/Assign_76"
  input: "^save/Assign_77"
  input: "^save/Assign_78"
  input: "^save/Assign_79"
  input: "^save/Assign_80"
  input: "^save/Assign_81"
  input: "^save/Assign_82"
  input: "^save/Assign_83"
  input: "^save/Assign_84"
  input: "^save/Assign_85"
  input: "^save/Assign_86"
  input: "^save/Assign_87"
  input: "^save/Assign_88"
  input: "^save/Assign_89"
  input: "^save/Assign_90"
  input: "^save/Assign_91"
  input: "^save/Assign_92"
  input: "^save/Assign_93"
  input: "^save/Assign_94"
  input: "^save/Assign_95"
  input: "^save/Assign_96"
  input: "^save/Assign_97"
  input: "^save/Assign_98"
  input: "^save/Assign_99"
  input: "^save/Assign_100"
  input: "^save/Assign_101"
  input: "^save/Assign_102"
  input: "^save/Assign_103"
  input: "^save/Assign_104"
  input: "^save/Assign_105"
  input: "^save/Assign_106"
  input: "^save/Assign_107"
  input: "^save/Assign_108"
  input: "^save/Assign_109"
  input: "^save/Assign_110"
  input: "^save/Assign_111"
  input: "^save/Assign_112"
  input: "^save/Assign_113"
  input: "^save/Assign_114"
  input: "^save/Assign_115"
  input: "^save/Assign_116"
}
node {
  name: "save/restore_all"
  op: "NoOp"
  input: "^save/restore_shard"
}
versions {
  producer: 22
}
